results/DA3C/model/actor_net_machine.ckpt (torch, 346035 bytes, 8 tensors)

layers_2.0.weight f4 [200, 21]
0	0xbd645da5	-0.05575337
1	0x3e0e8261	0.13916923
2	0x3ce5213d	0.02796995
3	0x3e254705	0.16140373
4	0xba6e56ec	-0.0009091932
5	0xbde637c2	-0.11241104
6	0xbe16cd09	-0.14726652
7	0xbe2dcba2	-0.16972211
8	0x3dbe3de6	0.0928915
9	0x3c65fce7	0.014037347
10	0xbe246385	-0.16053589
11	0x3e0716a4	0.1319223
12	0xbe4235bf	-0.18965815
13	0x3d966717	0.073438816
14	0x3d8a96f8	0.06767076
15	0xbca01704	-0.019542225
16	0x3def3af6	0.11681168
17	0x3e03765e	0.12838122
18	0x3e0432ae	0.12909958
19	0x3dcd3b6b	0.10021099
20	0xbe205ff0	-0.15661597
21	0xbe2b39b9	-0.16721238
22	0x3d988e63	0.07449033
23	0xbdea2ff7	-0.1143493
24	0x3c7d9929	0.015478411
25	0xbc32bdb6	-0.010909488
26	0xbe116fb6	-0.1420277
27	0x3b2568ce	0.002523947
28	0x3e066819	0.13125648
29	0xbe3958ad	-0.18100233
30	0xbd09f4e8	-0.033680826
31	0x3e51d32f	0.20490716
32	0x3ce01033	0.027351474
33	0xbdee1673	-0.116253756
34	0x3e5d461a	0.21608773
35	0x3d2d58e2	0.042321093
36	0xbdb385d8	-0.08765763
37	0x3e2b7181	0.16742517
38	0x3e561b17	0.20908771
39	0x3da31446	0.07962851
40	0xbe203bd2	-0.1564782
41	0xbdf7d6c9	-0.12101514
42	0x3dd7ca7e	0.10536669
43	0xbb34855a	-0.0027545304
44	0xbdfe0aba	-0.1240439
45	0xbdaabadf	-0.08336424
46	0x3d0f2912	0.034951277
47	0x3dccc667	0.0999878
48	0xbe131b65	-0.14365919
49	0x3e3ce678	0.18447292
50	0xbde48bd4	-0.111594826
51	0x3e59727e	0.21235082
52	0x3df313ae	0.11868988
53	0x3dec7268	0.11545259
54	0x3bf65edd	0.007518633
55	0x3da82a40	0.082111835
56	0xbd49a58d	-0.049230147
57	0x3db7f28b	0.08981808
58	0x3e257e9a	0.16161576
59	0xbdfed060	-0.12442088
60	0xbdb9ab72	-0.09065904
61	0x3e50b205	0.20380409
62	0x3e0d1c0a	0.13780227
63	0x3d62e000	0.055389404
64	0x3e60158e	0.21883222
65	0xbdf8e112	-0.12152304
66	0x3d994f66	0.07485847
67	0x3d379ec3	0.04482914
68	0x3de0811f	0.10962128
69	0xbd976d0e	-0.073938474
70	0x3d6f1bd8	0.058376163
71	0x3e69eb4e	0.22843668
72	0x3e2768ea	0.16348615
73	0x3e383cf1	0.17991997
74	0xbe39bde3	-0.18138842
75	0x3e5ea947	0.21744262
76	0x3e23c39f	0.15992592
77	0xbd73b07f	-0.05949449
78	0x3b252176	0.0025196946
79	0xbddddaf5	-0.10832778
80	0xbb8ea372	-0.0043529803
81	0xbddaae2a	-0.106777504
82	0x3db7faf6	0.08983414
83	0x3e34a008	0.17639172
84	0x3d7c7ad1	0.061640564
85	0x3e68145f	0.22664021
86	0x3d90d4c1	0.070718296
87	0xbe5e1736	-0.21688542
88	0xbd1175b5	-0.035512645
89	0x3d91d924	0.071214944
90	0x3e17e3e0	0.14833021
91	0xbdd23790	-0.10264504
92	0x3e05da00	0.13071442
93	0x3e5b5e96	0.214228
94	0x3e3607ad	0.17776366
95	0x3de0e88c	0.10981855
96	0xbe39c1db	-0.18140356
97	0xbc48574a	-0.012227843
98	0x3de0fa1b	0.10985204
99	0x3c5930bd	0.013256249
100	0x3dee762b	0.116436325
101	0xbd98fc04	-0.07469943
102	0xbe4f5366	-0.20246658
103	0xbe45f35e	-0.19331118
104	0x3e394616	0.18093142
105	0x3cc5e85a	0.024158645
106	0x3dc25d17	0.09490412
107	0xbe1026e5	-0.14077337
108	0xbe197284	-0.1498509
109	0x3e037464	0.12837368
110	0xbd88943d	-0.06668899
111	0xbe121342	-0.14265159
112	0xbe4d8557	-0.20070396
113	0xb920ed05	-0.00015347086
114	0x3be0bcc1	0.0068584387
115	0x3c207da0	0.009795576
116	0xbc8fe5b7	-0.017565591
117	0xbd8c9d4e	-0.06865941
118	0xbd1ba1e7	-0.0379962
119	0x3c1230ab	0.008922736
120	0x3b64830b	0.0034868147
121	0x3d843720	0.06455827
122	0xbd54db9d	-0.051967252
123	0x3db5ce67	0.08877259
124	0xbadcec9f	-0.0016855187
125	0x3dc2d695	0.095135845
126	0x3d5f3ad4	0.054499462
127	0xbe053a25	-0.13010462
128	0xbdaca2f7	-0.084295206
129	0xbc849e78	-0.016188845
130	0x3dc93eab	0.09826406
131	0xbe2fb9b5	-0.17160685
132	0xbdfda0b7	-0.123841695
133	0xbca7adf7	-0.020468695
134	0xbd9e1480	-0.07718754
135	0xba8a6d55	-0.0010561148
136	0xbdb24288	-0.08704096
137	0xbd167d31	-0.036740486
138	0xbe02eee8	-0.12786448
139	0x3e29c7ce	0.16580126
140	0xbe159344	-0.14606959
141	0xbd711d7d	-0.058866013
142	0xbd8f4fe9	-0.069976635
143	0xbd7095cc	-0.058736607
144	0xbd4ae995	-0.049539167
145	0x3dd49bb6	0.10381262
146	0xbd3a5d77	-0.04549929
147	0x3e3798a7	0.17929326
148	0x3e49afb0	0.19695926
149	0xbc8ab04f	-0.016929774
150	0x3db836b1	0.089948066
151	0xbd6a1f0c	-0.057158515
152	0x3d753c67	0.059872057
153	0xbcbfddfc	-0.02342128
154	0xbdca11ab	-0.09866651
155	0xbd82b46d	-0.0638207
156	0xbe204d1e	-0.15654418
157	0xbe57ecd6	-0.2108644
158	0x3dbd0158	0.09228772
159	0xbdae30b4	-0.08505383
160	0x3e502361	0.20325996
161	0xbe1cdcc9	-0.15318598
162	0x3d9f57d8	0.07780427
163	0xbdcba2a8	-0.099431336
164	0x3d8134a3	0.06308868
165	0xbe110880	-0.14163399
166	0x3dd78028	0.10522491
167	0x3d8d9ae6	0.0691431
168	0xbce98dd3	-0.02851001
169	0x3e548cff	0.2075691
170	0xbe344ee0	-0.17608213
171	0xbde5763f	-0.11204194
172	0xba16c2f9	-0.0005751099
173	0xbe0e85e9	-0.1391827
174	0xbd9ab933	-0.07554855
175	0xbd0ef454	-0.03490098
176	0xbcffec92	-0.031240735
177	0xbdf66a56	-0.12032001
178	0xbd3a68a8	-0.045509964
179	0xbe0349c9	-0.12821116
180	0xbe23bead	-0.15990706
181	0x3e2ae983	0.1669064
182	0x3e56b608	0.20967877
183	0xbdcd688b	-0.100297056
184	0xbe400157	-0.18750511
185	0x3d066ca9	0.03281847
186	0x3d9bb760	0.076033354
187	0xbe48d091	-0.19610812
188	0xbdb9f5fa	-0.090801194
189	0x3ddc9915	0.107713856
190	0xbd17e0b6	-0.037079535
191	0x3e379326	0.17927226
192	0xbe4c963f	-0.1997919
193	0xbe3c0109	-0.1835977
194	0x3dc118b3	0.09428539
195	0x3df010f9	0.11721987
196	0xbe4a1936	-0.1973618
197	0x3e350674	0.17678243
198	0xbc008ccb	-0.007846068
199	0x3da95d32	0.08269729
200	0xbc0de23d	-0.008659896
201	0x3d799e64	0.06094207
202	0xbdafe6a5	-0.08588914
203	0xbe510c60	-0.20414877
204	0xbdfc45ae	-0.12317978
205	0xbe26ca0c	-0.16288012
206	0xbe5ebd80	-0.21751976
207	0x3dde1018	0.108429134
208	0xbe03f874	-0.12887746
209	0x3bba8ab1	0.005692803
210	0xbdfbc8a4	-0.122941285
211	0xbdec68b3	-0.11543407
212	0x3c5f0d80	0.0136140585
213	0x3e08a5ed	0.13344546
214	0x3d6d37a4	0.05791439
215	0xbdd9f118	-0.10641688
216	0x3bbd5420	0.0057778507
217	0xbe576dd9	-0.21037997
218	0x3e4bb77b	0.19894211
219	0x3d9ddc62	0.0770805
220	0x3ca24720	0.019809306
221	0xbd1e69dc	-0.038675174
222	0x3cf221d8	0.029557154
223	0xbe129566	-0.14314803
224	0xbdca3c74	-0.09874812
225	0xbe06ae8d	-0.13152523
226	0x3e01fcf5	0.12694152
227	0x3ca547c8	0.02017583
228	0x3e5e3d19	0.21702994
229	0xbc9659a8	-0.018353298
230	0xbe44b66c	-0.19210213
231	0xbe185886	-0.14877519
232	0xbdcaf059	-0.09909124
233	0x3e2f0a13	0.17093687
234	0x3c88f270	0.016717166
235	0x3e15c7a3	0.14626937
236	0xbe042866	-0.12906036
237	0x3c81a1c0	0.015824199
238	0x3e0d038b	0.13770883
239	0x3e3fb12b	0.18719928
240	0x3cd394a0	0.025827706
241	0x3e49902b	0.19683902
242	0x3e0cfe29	0.1376883
243	0x3d361954	0.04445775
244	0x3e109e17	0.14122806
245	0xbe262524	-0.16225106
246	0x3e421daf	0.18956636
247	0xbe464b00	-0.19364548
248	0x3e5bb6df	0.21456479
249	0xbe4e4bc6	-0.20146093
250	0x3dbf6e1a	0.09347172
251	0xbe252673	-0.16127948
252	0xbe209c78	-0.15684688
253	0x3e3f4073	0.18676929
254	0xbe39589d	-0.1810021
255	0x3db24972	0.08705415

layers_2.0.bias f4 [200]
0	0x3e2d11d6	0.16901335
1	0xbd86241b	-0.06549855
2	0xbd56e83f	-0.05246758
3	0x3d03c6a8	0.032171875
4	0x3e028c13	0.12748747
5	0x3dc0b7f2	0.09410085
6	0xbde71998	-0.112841785
7	0xbe2519d8	-0.1612314
8	0x3e0119db	0.1260752
9	0x3de0c419	0.10974903
10	0xbd474324	-0.048648015
11	0x3d8f18b2	0.06987132
12	0xbd0934d0	-0.03349763
13	0x3d8edcda	0.06975718
14	0xbe4ebdad	-0.20189543
15	0x3dd88e4f	0.10574018
16	0xbe289eae	-0.16466781
17	0x3de51915	0.11186425
18	0xbd94e419	-0.07270069
19	0xbe511d51	-0.2042134
20	0xbdcce7cc	-0.10005149
21	0xbd23b502	-0.039967544
22	0x3e1c2874	0.15249807
23	0xbe41bd93	-0.18919973
24	0x3c8ee976	0.017445307
25	0xbe0bf538	-0.13667762
26	0x3e371f00	0.1788292
27	0x3dc03a1e	0.09386085
28	0xbe584b4c	-0.21122473
29	0x3e094502	0.1340523
30	0x3d59ae9f	0.053145047
31	0x3a17777b	0.0005777997
32	0x3c6f519e	0.014606861
33	0xbd979205	-0.07400898
34	0x3ccbe53c	0.02488958
35	0xbe4c9c7e	-0.19981572
36	0xbdcc5f82	-0.09979154
37	0x3cbdca61	0.02316779
38	0xbe4f8f8a	-0.202696
39	0xbe380f7d	-0.17974658
40	0x3de1a432	0.11017646
41	0xbde49075	-0.111603655
42	0xbe2f2602	-0.17104343
43	0xbcd59892	-0.026073728
44	0xbdb58982	-0.08864118
45	0x3de8f772	0.113753214
46	0xbe4c3438	-0.19941795
47	0xbe31ad9e	-0.17351386
48	0x3e47e843	0.19522195
49	0x3e4b175f	0.19833134
50	0xbdb44fa7	-0.08804255
51	0x3c840969	0.016117768
52	0x3e5cf2db	0.21577017
53	0x3d6f07f1	0.058357183
54	0xbd9b35af	-0.07578599
55	0x3e527ec6	0.20556173
56	0x3e2cb14f	0.16864513
57	0xbe19c232	-0.15015486
58	0x3ddb421e	0.1070597
59	0xbe419543	-0.18904595
60	0x3e3993a3	0.18122725
61	0xbdb72573	-0.0894269
62	0x3d83a830	0.064285636
63	0x3e0e5a16	0.13901553
64	0xbe3763fe	-0.17909238
65	0xb9d60280	-0.00040819123
66	0xbd8c185c	-0.06840584
67	0x3e118cf6	0.14213929
68	0x3e45e1f3	0.19324474
69	0xbc8d1d65	-0.01722593
70	0x3dbd9e94	0.09258762
71	0x3ca96c6d	0.020681584
72	0x3b55c351	0.0032617638
73	0xbe1a6d99	-0.1508087
74	0xbd5714d9	-0.052510116
75	0xbad07c8a	-0.0015906256
76	0x3d311b20	0.04323876
77	0x3d8f271b	0.06989881
78	0xbcdf4f36	-0.02725945
79	0x3df47543	0.119364284
80	0xbe479c07	-0.19493113
81	0x3e4a7c15	0.19773896
82	0x3e5e7914	0.21725875
83	0x3dfe8192	0.12427057
84	0x3e4d1925	0.20029123
85	0xbd315c46	-0.04330089
86	0x3cc8bb1b	0.024503281
87	0xbe02d61f	-0.12776993
88	0x3d449254	0.047991112
89	0x3da41251	0.08011306
90	0xbd7b3863	-0.06133307
91	0x3e28e189	0.16492285
92	0xbe486444	-0.19569498
93	0xbd448c26	-0.04798522
94	0x3e4d48e4	0.20047337
95	0x3e3d0f22	0.18462804
96	0x3d4fad02	0.050702102
97	0xbd02319a	-0.031785585
98	0x3dcb5a07	0.09929281
99	0xbe34a865	-0.17642362
100	0xbe0f8aa1	-0.14017726
101	0xbe4ccde1	-0.20000412
102	0x3d2518d5	0.040306885
103	0x3ca4e4f5	0.020128706
104	0xbd6f4b0d	-0.058421183
105	0x3cf74483	0.030184036
106	0x3d4093b4	0.04701586
107	0x3e26e63b	0.16298763
108	0xbcecb480	-0.028894663
109	0xbd9765ab	-0.073924385
110	0x3e45850f	0.19289039
111	0x3e465be8	0.19370997
112	0x3dde37ec	0.1085051
113	0x3e21278c	0.15737742
114	0xbe5cb1f4	-0.21552259
115	0x3da24e7b	0.07925125
116	0xbe3a63dd	-0.18202157
117	0xbda003ea	-0.078132465
118	0xbdf9ca17	-0.12196749
119	0x3dc9bcce	0.09850465
120	0x3e03bdf8	0.12865436
121	0x3de5053c	0.11182639
122	0xbe5a1143	-0.21295647
123	0xbe3e3d05	-0.18577965
124	0xbe16c14e	-0.14722177
125	0xbd60749f	-0.05479872
126	0xbd268e79	-0.040663216
127	0xbe433026	-0.19061336
128	0x3e4308fc	0.19046396
129	0x3df1fb46	0.11815505
130	0xbe27535b	-0.16340391
131	0xbe188e43	-0.14898019
132	0xbd7b719d	-0.061387647
133	0xbc3cade6	-0.01151607
134	0xbde617b0	-0.11234987
135	0xbd919dc6	-0.07110171
136	0xbe42130b	-0.18952577
137	0xbe569ce6	-0.2095829
138	0x3dfc1fb5	0.12310735
139	0xbe22a7e2	-0.15884355
140	0xbc8b507d	-0.017006153
141	0xbe5bc030	-0.21460032
142	0xbde42f0d	-0.11141787
143	0x3e1f48a3	0.15555052
144	0xbd41398d	-0.047174025
145	0x3d81e5ed	0.06342683
146	0xbd932250	-0.07184279
147	0xbe2cec37	-0.16886984
148	0xbe53e641	-0.20693304
149	0xbdba0294	-0.09082523
150	0xbe207f46	-0.15673551
151	0x3d6cc613	0.057806086
152	0xbe22c2f3	-0.1589468
153	0xbe0c0673	-0.13674335
154	0xbe23e1cb	-0.16004102
155	0x3deffb13	0.117178105
156	0x3db46389	0.08808047
157	0xbd11f170	-0.035630643
158	0x3c86f182	0.016472582
159	0xbe566fe6	-0.20941123
160	0xbe45f9af	-0.19333528
161	0xbe42ffce	-0.19042894
162	0xbd015e77	-0.03158423
163	0xbe33f1dc	-0.17572731
164	0xbde4c4bb	-0.11170336
165	0xbe0a8d55	-0.13530476
166	0xbe59b26a	-0.21259466
167	0xbe22c328	-0.15894759
168	0xbe57e57d	-0.21083637
169	0xbdc824fb	-0.097726785
170	0xbe35769c	-0.17721027
171	0xbe2861a8	-0.16443503
172	0xbd3533a1	-0.04423869
173	0xbe377476	-0.1791552
174	0xbd8c3841	-0.06846667
175	0x3cd0a046	0.02546705
176	0x3e5d5984	0.21616179
177	0xbc623416	-0.013806364
178	0x3e3b7344	0.18305689
179	0x3e5bf9b7	0.21481977
180	0x3d4e7fd3	0.05041487
181	0x3e2e668b	0.17031305
182	0x3e2f9cfb	0.17149727
183	0xbe1f167e	-0.15535924
184	0x3e4107a8	0.18850577
185	0x3e5dd247	0.21662246
186	0x3d724002	0.059143074
187	0xbd6b113c	-0.057389483
188	0xbe442680	-0.19155312
189	0x3db1ced4	0.086820275
190	0xbdc7a723	-0.09748676
191	0x3e33ea0a	0.17569748
192	0xbe079eb7	-0.13244139
193	0xbe58f3fd	-0.21186824
194	0xbe5de404	-0.21669012
195	0xbccaf63a	-0.024775613
196	0xb9682876	-0.00022140317
197	0xbe32f17b	-0.1747493
198	0x3e0a2340	0.1349001
199	0x3d07d41f	0.03316128

layers_2.2.weight f4 [200, 200]
0	0xbc1033b6	-0.008801391
1	0x3d8b9e95	0.068173565
2	0x3d43fc09	0.04784778
3	0x3b395d03	0.00282842
4	0x3d4a6af4	0.049418405
5	0xbd198019	-0.03747568
6	0xbd041998	-0.03225097
7	0x3b4e3e96	0.003147041
8	0xbc91ca46	-0.017796647
9	0x3d5d631d	0.0540496
10	0x3cd3b808	0.025844589
11	0xb7e47000	-2.7231872e-05
12	0xbd10746f	-0.03526729
13	0x3ce99fa9	0.028518515
14	0xbd32262c	-0.043493435
15	0xbd2dee7c	-0.042463765
16	0x3ca766c7	0.02043475
17	0xbcb9015b	-0.022583654
18	0x3d15cfdc	0.036575183
19	0x3c845c1d	0.016157204
20	0x3cdb2d75	0.026755074
21	0x3d19c65b	0.037542682
22	0x3c8b83b3	0.017030573
23	0x3d2987ce	0.04138928
24	0x3ca3a041	0.019973876
25	0xbd717bd7	-0.058955994
26	0x3c8090ca	0.01569404
27	0x3d60352e	0.054738216
28	0x3b748094	0.0037308084
29	0xbd781518	-0.06056699
30	0x3c4f616d	0.012657505
31	0xbd81981e	-0.06327842
32	0x3c996475	0.01872466
33	0x3d6479e1	0.055780295
34	0xbd249db7	-0.04018947
35	0xbba01b93	-0.0048860996
36	0x3d3c61ca	0.045991696
37	0xbd0865aa	-0.03330008
38	0xbd4ab8da	-0.049492694
39	0x3ce68bc8	0.028142825
40	0x3d5a9574	0.053365186
41	0xbb7889c0	-0.0037923902
42	0x3d1e3bde	0.038631313
43	0x3d24b4cc	0.040211484
44	0xbc60fb89	-0.013731846
45	0xbd70249e	-0.05862867
46	0xbc39d923	-0.011343273
47	0xbd3332ae	-0.043749504
48	0x3b56cf2d	0.0032777295
49	0x3cec64dc	0.028856687
50	0x3d619d1c	0.05508147
51	0x3d739124	0.05946459
52	0x3d5b7258	0.053575844
53	0x3caaa36d	0.02082988
54	0xbc2bb140	-0.010479271
55	0xbcf10cd7	-0.029425068
56	0x3cf697df	0.030101715
57	0x3d1b4bcd	0.037914086
58	0x3d4ae05d	0.049530376
59	0xbc616f6a	-0.013759473
60	0x3c889cfa	0.016676415
61	0xbd3befee	-0.04588311
62	0xbd7862ce	-0.060641102
63	0xbd86b039	-0.065765806
64	0x3cca5ada	0.024701525
65	0x3c9cfac9	0.019162552
66	0x3d61ffe9	0.055175696
67	0x3d3db788	0.046317607
68	0x3ce4c1b7	0.027924402
69	0xbd0f7075	-0.035019357
70	0x3cb274fc	0.021784298
71	0x3cbbfd2b	0.022947868
72	0x3b481e80	0.0030535758
73	0xbc1f16ce	-0.009710027
74	0xbd30f072	-0.043198057
75	0x3d7af647	0.061270025
76	0xbaa44409	-0.0012532483
77	0xbacf544a	-0.0015817967
78	0x3c8e0538	0.017336473
79	0x3c660dbd	0.014041361
80	0x3d8e4a9e	0.06947826
81	0xbcab9eb4	-0.020949699
82	0x3d5c4715	0.053778727
83	0x3d7dbbfe	0.06194686
84	0x3b30bb19	0.0026966988
85	0x3d821d1b	0.06353208
86	0x3d15f81b	0.036613565
87	0xbd5e469e	-0.054266565
88	0x3d35df91	0.044402663
89	0xbbcd8b48	-0.006272707
90	0xbd6eeeaa	-0.058333077
91	0x3cba8d04	0.02277232
92	0xbcb13928	-0.0216337
93	0xbd3f1ba7	-0.04665723
94	0x3d26047e	0.040531628
95	0x3cd47476	0.02593444
96	0x3d453051	0.04814178
97	0x3d87e9bc	0.06636378
98	0x3bbcf68e	0.0057666963
99	0x3c80cc6e	0.01572248
100	0x3d5b5ab8	0.053553313
101	0x3c737001	0.014858247
102	0xbc792181	-0.015205742
103	0x3d7cd890	0.061729968
104	0xbb6ec9b9	-0.0036436154
105	0xbc7860e1	-0.0151598165
106	0x3d7b6bca	0.061382093
107	0xbc009a28	-0.007849254
108	0x3d22a614	0.039709166
109	0x3d86bc7e	0.06578921
110	0xbd065c74	-0.032803014
111	0xbc81749e	-0.015802678
112	0xbcc27a53	-0.02373997
113	0xbd6984df	-0.05701148
114	0xbc015230	-0.00789313
115	0x3d8c1a00	0.068408966
116	0xbd002f96	-0.03129538
117	0xbd8e917b	-0.06961342
118	0x3c7c78a8	0.015409626
119	0x3d89eeb1	0.0673498
120	0xbd0f0c4c	-0.034923837
121	0x3cb93270	0.022607058
122	0xbd7475fd	-0.059682835
123	0x3ccbf11d	0.024895245
124	0x3d3181d5	0.043336708
125	0xbc4b90a5	-0.012424623
126	0x3cba5cef	0.022749392
127	0x3c990272	0.018677924
128	0xbb4bb290	-0.0031081773
129	0x3c9dc2f8	0.019258007
130	0x3ce31b05	0.027722845
131	0xbcac9c83	-0.021070724
132	0x3cecf35e	0.02892464
133	0x3d89ab2a	0.067221
134	0xbd232ce1	-0.03983772
135	0xbd7be7d7	-0.061500397
136	0xbd6878ed	-0.05675595
137	0xbcef6376	-0.029222231
138	0x3d6671ef	0.056261
139	0x3d5a1847	0.05324581
140	0x3d804fc3	0.06265213
141	0x3c9f574c	0.019450806
142	0x3d887a6a	0.06663974
143	0x3cf26272	0.029587958
144	0xbd02fd56	-0.03197988
145	0xbc0234f3	-0.007947194
146	0xbd49c0fb	-0.049256306
147	0xbc7a5bbc	-0.01528066
148	0xbd3c964e	-0.04604178
149	0xbcce5a91	-0.02518967
150	0xbd1277aa	-0.03575865
151	0x3d99c1c4	0.07507661
152	0x3d22d7a3	0.03975643
153	0xbd369cc1	-0.044583086
154	0xbd859d95	-0.06524197
155	0x3d221097	0.039566603
156	0x3d7baeb8	0.06144592
157	0xbd393e00	-0.045225143
158	0x3d451cd1	0.048123185
159	0xbce396f7	-0.027781947
160	0xbd112d73	-0.035443734
161	0x3bd1ab27	0.006398577
162	0xbb6f8ca5	-0.0036552337
163	0xbcf36e23	-0.029715603
164	0x3bc4e9e0	0.0060093254
165	0xbd3da8aa	-0.04630343
166	0xbd32c489	-0.04364446
167	0x3ce51de6	0.027968358
168	0xbd513f0e	-0.051085524
169	0xbd0dee64	-0.034651175
170	0xbc6393c4	-0.013890211
171	0x3d2dd2e7	0.04243746
172	0xbb3e6bdb	-0.0029055986
173	0x3cf6e39f	0.030137835
174	0xbd926d79	-0.071497865
175	0xbd4afc91	-0.049557272
176	0xbd2b93ab	-0.041888874
177	0x3cb36766	0.02189989
178	0x3c89db04	0.016828068
179	0xbd3a00d4	-0.045410946
180	0xbd0eebf5	-0.034892995
181	0x3d92c2b1	0.07166041
182	0xbca78df6	-0.020453434
183	0x3cab4970	0.020909041
184	0x3d933c6b	0.07189258
185	0x3c489a88	0.012243874
186	0xbbbf2821	-0.005833641
187	0x3cd770f8	0.026298985
188	0x3c427d65	0.011870717
189	0x3c1cf0bd	0.009578881
190	0x3d41c6c6	0.047308706
191	0xbd45905b	-0.04823337
192	0x3c3c7b7e	0.011504052
193	0x3c6c1b78	0.014410846
194	0x3d78a688	0.06070569
195	0x3d8e0dd8	0.06936234
196	0xbd62eb9d	-0.05540048
197	0xbcf30fb0	-0.029670566
198	0x3cffdc36	0.031232934
199	0x3da276fc	0.07932851
200	0xbc9b191b	-0.01893287
201	0xbd5b7258	-0.053575844
202	0x3cbf8b0b	0.02338173
203	0xbd7e6c47	-0.06211498
204	0xbc2d3be9	-0.010573366
205	0x3c20ae30	0.009807155
206	0x3d26d0dc	0.040726528
207	0x3d84a2e0	0.064763784
208	0xbd635a8f	-0.055506285
209	0xbd551cff	-0.052029606
210	0x3d65f302	0.056139953
211	0xbd339102	-0.043839462
212	0xbd59280c	-0.053016707
213	0x3c8c4ba6	0.017125916
214	0x39a2453c	0.00030950631
215	0x3bfdeadb	0.007748944
216	0xbc55fdaf	-0.013060971
217	0xbd4696bf	-0.048483606
218	0x3d46257b	0.048375588
219	0xbd0425b4	-0.03226252
220	0x3d486bb0	0.048930824
221	0xbd2c93a0	-0.042132974
222	0x3d3ac6e9	0.04559985
223	0xbd5f321f	-0.05449116
224	0xbd64a5fa	-0.05582235
225	0xbd0c44c0	-0.034245253
226	0x3d417635	0.04723187
227	0xbd53d5c1	-0.051717523
228	0xbcf665a9	-0.030077772
229	0x3d7bcaba	0.061472632
230	0xbca5d802	-0.020244602
231	0x3d4f57b4	0.05062075
232	0x3d383a62	0.044977553
233	0xbc232942	-0.009958567
234	0xbd6a93e5	-0.05726995
235	0xbb137d07	-0.0022504942
236	0x3c8cd5c2	0.017191771
237	0xbd64faec	-0.05590336
238	0xbd8a9e72	-0.06768502
239	0x3d6eab4f	0.05826884
240	0x3d8dc107	0.06921583
241	0x3a079d00	0.0005173236
242	0xbcb244c3	-0.021761304
243	0x3c3d068a	0.011537204
244	0xbc5996a0	-0.013280541
245	0xbd817dfe	-0.06322859
246	0x3d80bd76	0.06286137
247	0x3ca9345e	0.020654853
248	0x3d0e1b62	0.034694083
249	0x3c614eaa	0.013751665
250	0x3d0c3555	0.03423055
251	0x3d596d64	0.05308284
252	0x3b186a34	0.0023256661
253	0xbd12c13c	-0.035828814
254	0x3cbc7762	0.023006145
255	0x3d8975f8	0.06711954

layers_2.2.bias f4 [200]
0	0x3d47b862	0.048759826
1	0x3caa7514	0.02080778
2	0xbce2f020	-0.027702391
3	0x3c7a9457	0.015294156
4	0xbd6f2303	-0.058383
5	0xbcc4b0e2	-0.024010126
6	0xbd33bbc6	-0.043880247
7	0xbb5b9740	-0.00335069
8	0xbc697c1a	-0.0142507795
9	0xbd8661bd	-0.06561611
10	0x3d90438f	0.07044136
11	0xbd37e44a	-0.044895448
12	0x3d72f6a7	0.059317257
13	0x3d09789f	0.0335623
14	0x3c985493	0.018595016
15	0xbd425278	-0.04744193
16	0x3d4abc64	0.04949607
17	0x3cfa4b62	0.030553523
18	0x3cf55ff1	0.029952975
19	0xbd8edcc4	-0.069757015
20	0xbd66de31	-0.056364242
21	0xbbfba990	-0.0076801255
22	0xbb5c2820	-0.0033593252
23	0xbc2a11e9	-0.010380247
24	0xbcae45aa	-0.021273453
25	0x3d7cd9f8	0.06173131
26	0x3cf5a6fc	0.02998685
27	0xbcf16ce2	-0.029470865
28	0xbcecc296	-0.02890138
29	0x3c232893	0.009958404
30	0xbc84e69d	-0.016223246
31	0x3d1a1c74	0.03762479
32	0x3d6bfc85	0.05761387
33	0x3d57f76b	0.05272619
34	0x3d0a24f6	0.033726655
35	0xbcd5dffa	-0.026107777
36	0x3c81d4dc	0.01584857
37	0x3c4754fa	0.012166256
38	0x3d0bddf9	0.034147236
39	0x3d8d2756	0.06892268
40	0x3c82280f	0.015888242
41	0xbd5b8563	-0.053594004
42	0xbd03ba66	-0.032160185
43	0x3cb78a0e	0.022404697
44	0x3d6e7b73	0.0582232
45	0x3c48bb41	0.012251676
46	0xbb706980	-0.0036683977
47	0x3d50db87	0.050990608
48	0xbcf3b68b	-0.02975013
49	0xbc41cc4a	-0.011828491
50	0x3c12695d	0.008936253
51	0xbc94d64d	-0.018168593
52	0x3d532a91	0.051554266
53	0x3d140787	0.03613999
54	0xbd4e7139	-0.050400946
55	0xbce01c38	-0.027357206
56	0xbd73ffc1	-0.059570078
57	0xbc5f1d70	-0.013617858
58	0xbcac4df5	-0.021033267
59	0x3d20ce3b	0.039259177
60	0x3d6a3b32	0.05718536
61	0xb9ac807c	-0.00032902125
62	0xbc46b163	-0.012127253
63	0xbc94d7b0	-0.018169254
64	0xbd75a541	-0.05997205
65	0xbd38329d	-0.044970144
66	0x3b9ddbfe	0.004817485
67	0x3d3f4574	0.046697095
68	0x3cbc8c66	0.023016166
69	0x3d9a2c65	0.07527999
70	0x3c0729fd	0.008249757
71	0xbc91c95a	-0.017796207
72	0x3be5fde2	0.0070187906
73	0x3d0a69f3	0.033792447
74	0x3d819565	0.06327323
75	0xbb3bbe40	-0.0028647333
76	0x3c3d54be	0.011555849
77	0x3c998327	0.018739296
78	0x3c970d75	0.018439034
79	0x3d771deb	0.060331266
80	0x3d0c3ad3	0.034235787
81	0xbcdc4989	-0.026890533
82	0xbd86ae86	-0.065762565
83	0xbd5574c1	-0.0521133
84	0x3c03df35	0.008048822
85	0x3d8a3ffe	0.06750487
86	0xbbc83fc0	-0.006111115
87	0x3d7bf63c	0.061514124
88	0x3d6cc134	0.05780144
89	0x3c56d128	0.01311139
90	0x3c36678a	0.011133084
91	0x3d5ea593	0.054357123
92	0xbd15e69d	-0.036596883
93	0x3cd5608b	0.026047012
94	0xbd7eebab	-0.06223647
95	0xbc9520fa	-0.018204201
96	0xbd3456ca	-0.04402808
97	0x3d86f5ef	0.06589877
98	0xbb791340	-0.0038005859
99	0xbd54e7c1	-0.05197883
100	0x3d879d5d	0.066218115
101	0xbccdfe89	-0.025145786
102	0x37f37080	2.9020244e-05
103	0x3c5785e1	0.013154478
104	0xbd7e3413	-0.06206138
105	0x3d849841	0.06474353
106	0xbd1d4ea9	-0.038405094
107	0xbca45eb6	-0.020064693
108	0xbc179974	-0.009252895
109	0x3d8651f9	0.06558604
110	0xbd48b077	-0.048996415
111	0xbd2512bd	-0.040301073
112	0x3c411ae0	0.011786193
113	0x3c8db4c8	0.017298117
114	0x3d3f4f89	0.04670671
115	0xbca35902	-0.019939903
116	0xbcae54d2	-0.02128068
117	0xbd081d4e	-0.033231072
118	0xbc0a1917	-0.008428833
119	0xbd89aa94	-0.06721988
120	0xbbbf9f60	-0.0058478564
121	0xbcdce895	-0.026966373
122	0xbd702324	-0.058627263
123	0x3d1bf674	0.038076833
124	0xbd260473	-0.040531587
125	0x3c1ddaa4	0.0096346475
126	0xbd0d5c57	-0.03451189
127	0xbd867ff3	-0.06567373
128	0x3d3ee4ae	0.046604805
129	0x3d8344e5	0.06409625
130	0xbc29f7c1	-0.010374011
131	0xbcc2131b	-0.02369075
132	0x3c6ae6bf	0.014337241
133	0x3d03defa	0.03219507
134	0xbd1ba1a2	-0.037995942
135	0xbd642278	-0.055696934
136	0x3d47f3fa	0.04881666
137	0x3cbfa505	0.023394117
138	0x3d0a0d5c	0.033704147
139	0xbcdaa607	-0.026690496
140	0x3bb5ba64	0.005545901
141	0x3c9d1e61	0.019179525
142	0x3c8546b9	0.016269075
143	0xbca9ff85	-0.020751724
144	0x3d3820c2	0.044953115
145	0xbd7f24e9	-0.06229106
146	0x3d849776	0.064742014
147	0x3d79020b	0.060792964
148	0x3d55d8c3	0.052208673
149	0xbc0a0910	-0.008425012
150	0xbd73aa45	-0.059488554
151	0x3bf44640	0.0074546635
152	0xbcc71d09	-0.024305837
153	0x3c547028	0.012966193
154	0xbcb3d768	-0.0219533
155	0x3d2c3d2d	0.04205053
156	0xba8beaf3	-0.0010674879
157	0x3d838905	0.06422619
158	0x3d2272b6	0.039660178
159	0x3b88a7c0	0.004170388
160	0xbd1031a1	-0.03520358
161	0x3cb520b9	0.02211033
162	0x3d83f9fc	0.06444165
163	0x3d61c757	0.055121746
164	0xbc1a08bd	-0.009401497
165	0xbc3cbc54	-0.01151951
166	0x3d39b1bb	0.045335513
167	0xbd8e55b3	-0.069499396
168	0xbd251dfa	-0.04031179
169	0xbd2b9c36	-0.04189702
170	0x3d203e02	0.039121635
171	0xbd0a2266	-0.03372421
172	0xbd294296	-0.041323267
173	0xbc5a3812	-0.013319032
174	0x3d1783bd	0.03699087
175	0x3c9410ba	0.018074382
176	0x3d6c573d	0.057700384
177	0xbca7f609	-0.02050306
178	0x3d310164	0.043214217
179	0x3c940414	0.01806835
180	0xbcb5ce2a	-0.022193033
181	0x3d85b9da	0.06529589
182	0xbd39f215	-0.045396883
183	0x3d31d341	0.043414358
184	0xbd758674	-0.059942678
185	0xbd86ecb1	-0.06588114
186	0x3d62d962	0.055383094
187	0x3cfcd2bb	0.030862203
188	0xbcc7a628	-0.024371222
189	0x3d91ed3f	0.07125329
190	0x3c61c7f4	0.013780583
191	0x3d76096f	0.06006759
192	0xbce7ca02	-0.028294567
193	0xbc004c49	-0.007830688
194	0x3d328b95	0.043590147
195	0x3cec7e9e	0.02886897
196	0xbcf57198	-0.029961392
197	0xbcd1fa64	-0.02563209
198	0x3d613b8f	0.05498844
199	0x3d1b3852	0.037895508

layers_2.4.weight f4 [200, 200]
0	0x3d87aebb	0.06625124
1	0xbd5efcb5	-0.05444022
2	0x3c87c9fd	0.016575808
3	0x3d25cf19	0.040480707
4	0xbbf989aa	-0.007615288
5	0x3d01d2a3	0.03169502
6	0x3d42ca4c	0.047556207
7	0xbd7bde88	-0.06149152
8	0xbd57ddc9	-0.052701745
9	0x3d353415	0.044239122
10	0x3cdffa44	0.027341016
11	0xbc28ef0e	-0.010310901
12	0x3d614902	0.055001266
13	0x3d01d92b	0.03170125
14	0xbcdf3954	-0.027249016
15	0xbd825396	-0.06363599
16	0x3a891400	0.0010458231
17	0xbd0b0130	-0.03393668
18	0x3bb55f67	0.0055350545
19	0x3cfca5ad	0.03084072
20	0x3cb926e6	0.022601556
21	0xbb94fdc0	-0.004546851
22	0x3c73f1c0	0.014889181
23	0xbcbca2a7	-0.023026777
24	0x3c0ada59	0.00847491
25	0x3d1541fe	0.03643989
26	0xbcbc14fb	-0.022959223
27	0xb950fa00	-0.00019929558
28	0xbb7a0d64	-0.0038154954
29	0xbd18c2f3	-0.037295293
30	0xbd1ace78	-0.03779456
31	0xbcaae994	-0.020863332
32	0xbbd17858	-0.00639252
33	0x3d59dff8	0.05319211
34	0x3c80bd60	0.015715301
35	0x3d28e9c9	0.04123858
36	0x3ca762aa	0.020432789
37	0xbcc690e9	-0.02423902
38	0xbd402f28	-0.04691997
39	0x3d8dc338	0.06922001
40	0x3d4c4ba8	0.04987684
41	0x3d917341	0.07102061
42	0xbc9cff35	-0.019164661
43	0xbc78b7f2	-0.015180575
44	0x3cdf97f2	0.027294133
45	0xbd56f53b	-0.052479964
46	0x3d424abe	0.04743456
47	0xbd6a9ccb	-0.057278436
48	0x3cc5dab5	0.02415214
49	0xbd0cb930	-0.034356296
50	0x3b90c7ee	0.0044183647
51	0xbd63744d	-0.055530835
52	0xbd5bdce3	-0.05367745
53	0x3cd6ed10	0.026236087
54	0x3d697392	0.056994982
55	0xbd4140b4	-0.047180846
56	0x3d2d4db6	0.04231044
57	0x3d8a3e78	0.06750196
58	0xbd4ceb21	-0.050028924
59	0xbbddbab6	-0.0067666424
60	0xbd6ebd97	-0.058286276
61	0x3d57c121	0.052674416
62	0x3c0ddf50	0.008659199
63	0x3b481e0f	0.0030535494
64	0x3d321c4b	0.043484014
65	0x3d0768dd	0.03305899
66	0x3d2ead40	0.042645693
67	0x3d059589	0.03261331
68	0xbcb91b64	-0.022596069
69	0x3c4e6010	0.012596145
70	0x3d91403c	0.0709233
71	0xbd1a2459	-0.03763232
72	0xbc433d53	-0.011916476
73	0x3d703720	0.05864632
74	0xbd848b0c	-0.064718336
75	0x3d6fefd2	0.05857832
76	0xbc8badf9	-0.01705073
77	0xbce89465	-0.028391073
78	0x3d53fa6c	0.051752493
79	0x3d291023	0.041275155
80	0x3bdcfd71	0.0067440798
81	0xbd8554e6	-0.06510334
82	0xbc432e15	-0.011912842
83	0xbd3012b8	-0.0429866
84	0x3cdd8fc9	0.027046101
85	0x3d66a6fd	0.056311596
86	0x3bd46630	0.0064819083
87	0x3d53c504	0.05170156
88	0xbcbd6cea	-0.023123223
89	0x3d82532f	0.06363522
90	0x3ca3dc77	0.020002587
91	0xbd8e43ba	-0.069465116
92	0x3d2f9f40	0.042876482
93	0xbd80c7bc	-0.06288096
94	0x3be2dce3	0.0069233044
95	0x3d72bec0	0.059263945
96	0x3d0bf158	0.03416571
97	0xbd5d2012	-0.053985663
98	0xbd3fbd6e	-0.046811514
99	0xbc2e537e	-0.010640023
100	0xbca4b21c	-0.02010446
101	0x3d89caf7	0.067281656
102	0x3cc77094	0.024345674
103	0xbb77653a	-0.0037749545
104	0x3c6a8a8d	0.01431526
105	0xbcb439fd	-0.022000307
106	0x3b3be217	0.0028668696
107	0x3d3cb3ff	0.046070095
108	0x3ce16e1c	0.027518325
109	0x3d25b770	0.040458143
110	0x3d86aaf8	0.065755785
111	0xbd0dca8a	-0.034616984
112	0x3b967580	0.004591644
113	0x3cbc391b	0.022976449
114	0x3d1ebce7	0.03875437
115	0x3b9ca3c3	0.004780264
116	0xbd84ff20	-0.06493974
117	0xbc700f14	-0.014652032
118	0x3d2753b5	0.040851314
119	0xbd2ea76a	-0.042640127
120	0x3d776ae2	0.060404666
121	0x3d109766	0.035300635
122	0x3b96b830	0.0045995936
123	0x3c6a0168	0.014282562
124	0xbbe353bb	-0.0069374717
125	0x3ca184f3	0.019716715
126	0x3ce02a3c	0.027363889
127	0xbd52a375	-0.051425416
128	0xba8db567	-0.0010811508
129	0xbcb97f9e	-0.02264386
130	0x3d27daf5	0.040980298
131	0xbbb077f8	-0.005385395
132	0x3d0aeb54	0.033915833
133	0x3d84cab9	0.06483979
134	0x3c95a859	0.018268751
135	0xbd1e35d9	-0.038625572
136	0xba927f40	-0.001117684
137	0xbac82d24	-0.0015272242
138	0x3ca75318	0.020425364
139	0xbcb30ec3	-0.021857625
140	0xbbb66935	-0.005566741
141	0xbc54dc0b	-0.012991915
142	0xbd710739	-0.05884478
143	0xbc2b3b8c	-0.010451209
144	0x3c7379de	0.014860598
145	0x3cdc182d	0.026866997
146	0x3d30e7b9	0.043189738
147	0x3d358260	0.04431379
148	0x3d56dba9	0.052455578
149	0xbd1aa46f	-0.037754472
150	0xbd135c91	-0.03597695
151	0xbca859d8	-0.020550653
152	0x3d847e69	0.06469423
153	0x3d845105	0.06460766
154	0xbd7f8ab2	-0.06238813
155	0x3d58e2ce	0.052950673
156	0xbcc685a9	-0.024233656
157	0x3cd0935b	0.02546089
158	0x3d524141	0.051331762
159	0x3d7210a0	0.059097886
160	0x3bfae2d1	0.007656433
161	0xbd45c747	-0.04828575
162	0xbc931e13	-0.017958676
163	0xbd05a452	-0.03262741
164	0xbd4f1a74	-0.050562337
165	0xbd36c87e	-0.044624798
166	0x3daab61f	0.08335518
167	0x3c225f10	0.00991036
168	0xbd80dc24	-0.062919885
169	0x3cbcc937	0.023045165
170	0x3c59a5dc	0.013284173
171	0xbc40dc03	-0.011771205
172	0x3d81f852	0.063461915
173	0x3d637e1d	0.055540193
174	0x3bcf55d3	0.0063273697
175	0x3d889238	0.06668514
176	0xbd1655cc	-0.036702916
177	0x3d964b45	0.07338575
178	0x3d0cf3e0	0.034412265
179	0x3d910523	0.07081058
180	0xbd2701db	-0.040773254
181	0x3da2c9af	0.07948624
182	0xbd14d78a	-0.036338367
183	0x3c810ff6	0.015754681
184	0x3d3c0d63	0.045911204
185	0x3b834da7	0.0040070596
186	0xbd38d030	-0.045120418
187	0x3c76fb5c	0.015074577
188	0xbbfb6df0	-0.0076730177
189	0x3da45c55	0.080254234
190	0xbd12dccc	-0.0358551
191	0x3d18b3c3	0.03728081
192	0xbd85e606	-0.06538014
193	0xbd58b163	-0.052903544
194	0x3daab8c9	0.08336026
195	0x3d5ac7a7	0.05341306
196	0x3ca8052e	0.020510282
197	0x3c820545	0.015871653
198	0x3d1cd233	0.0382864
199	0xbd024c23	-0.03181089
200	0x3cce66a4	0.025195427
201	0xbc6ce6c8	-0.014459319
202	0x3ccf8cc4	0.025335677
203	0xbcc84bf4	-0.02445028
204	0x3d787282	0.06065608
205	0x3c6adb08	0.014334448
206	0x3d4d77f6	0.05016323
207	0x3c6472b0	0.013943359
208	0x3ae7e200	0.0017691255
209	0xbd5c2f22	-0.053755887
210	0xbcb42f52	-0.02199522
211	0xbd0cdb39	-0.034388755
212	0xbcca0798	-0.024661824
213	0x3c022420	0.007943183
214	0xbd37bf8c	-0.044860408
215	0x3d6e01b6	0.0581071
216	0xbcce5eda	-0.025191713
217	0x3d1da48a	0.038486995
218	0xbd840671	-0.06446541
219	0x3d826935	0.06367723
220	0xbcc73ef0	-0.024322003
221	0x3d08e39c	0.03342019
222	0xbd6f57d0	-0.058433354
223	0x3c0c6470	0.008568868
224	0xbbf8c120	-0.0075913817
225	0xbc1c60a4	-0.009544525
226	0x3d185a48	0.037195474
227	0xbd1e5a5d	-0.038660396
228	0xbc89d618	-0.01682572
229	0x3d903125	0.070406236
230	0xbd49fd06	-0.049313568
231	0x3d7a9d42	0.06118513
232	0x3d3eb6e2	0.04656113
233	0x3d3c5836	0.045982562
234	0x3d319274	0.04335256
235	0xbce4d11a	-0.027931739
236	0x3afd8f40	0.001934506
237	0xba93d100	-0.0011277497
238	0x3d03246a	0.03201715
239	0x3d07d732	0.03316421
240	0xbd44fb4c	-0.048091218
241	0x3cb7b478	0.022424921
242	0x3cc4f580	0.024042845
243	0xbc3fe7f0	-0.011713013
244	0xbcaf8152	-0.02142397
245	0xbd4169a9	-0.047219906
246	0xbaf61980	-0.001877591
247	0xbd3be6a4	-0.045874253
248	0xbcac671e	-0.021045264
249	0x3c7a5d30	0.015281007
250	0x3d2a3e50	0.041563332
251	0xbd82453e	-0.06360863
252	0x3b4828e0	0.0030541942
253	0xbc3ac460	-0.0113993585
254	0xbd222a66	-0.039591216
255	0x3d2444c4	0.040104643

layers_2.4.bias f4 [200]
0	0x3d77344b	0.060352605
1	0x3d02b040	0.031906366
2	0xbd6f2fef	-0.058395322
3	0xbc59e0ca	-0.013298223
4	0xbd8f3c80	-0.06993961
5	0xbd431f41	-0.047637228
6	0xbd293f8d	-0.041320372
7	0x3cc962b3	0.024583196
8	0x3cde726e	0.027154174
9	0xbd29fda7	-0.041501667
10	0x3d6bd54f	0.057576474
11	0x3d605f6e	0.05477851
12	0x3cd6697c	0.026173346
13	0xbcaa8d52	-0.02081934
14	0x3d57e1e9	0.05270568
15	0x3c9c833c	0.019105546
16	0x3d90900c	0.07058725
17	0xbd5f33eb	-0.054492872
18	0xbd76fe1b	-0.060300928
19	0x3c83b850	0.016079098
20	0xbc472c96	-0.012156626
21	0x3c8ec069	0.017425733
22	0x3d58ceac	0.052931473
23	0x3d83928c	0.06424436
24	0x3d4b930d	0.049700785
25	0xbd22f251	-0.039781872
26	0xbbfb8557	-0.0076758075
27	0xbd4849ee	-0.04889863
28	0x3d41db6d	0.0473284
29	0x3bb4b580	0.0055148005
30	0xbc3f80a2	-0.011688383
31	0x3b2cc0dd	0.0026360073
32	0xbc1d550f	-0.009602799
33	0x3cb042a1	0.021516146
34	0xbd08c82e	-0.03339403
35	0x3c7a9df3	0.015296447
36	0xbc213e48	-0.009841509
37	0x3ae2a610	0.0017291922
38	0x3c8f9e4c	0.017531537
39	0xbcfb520c	-0.030678771
40	0x3d21d3e1	0.039508704
41	0xbd8611b2	-0.06546344
42	0x3d9037c5	0.07041887
43	0xbd137a98	-0.036005586
44	0x3b38cbe0	0.002819769
45	0xbd60f91a	-0.05492506
46	0x3c75e3bc	0.015007909
47	0x3d3c1cba	0.045925833
48	0x3cb3bea5	0.021941492
49	0x3d38e029	0.04513565
50	0xbab6713a	-0.0013919242
51	0xbd6603dc	-0.056156024
52	0x3cac09c2	0.021000747
53	0xbd40ea4f	-0.047098454
54	0xbd610b28	-0.05494228
55	0xbd39bb87	-0.045344856
56	0xbcf05af8	-0.029340252
57	0x3d02b2d6	0.031908832
58	0x3cea0937	0.028568847
59	0xbb9225ca	-0.004460071
60	0x3d4cadac	0.049970314
61	0xbd456a4e	-0.048197083
62	0x3d68f510	0.056874335
63	0x3c1a4368	0.009415485
64	0xbcf256b2	-0.029582355
65	0xbcc95dd7	-0.02458088
66	0xbbf0d257	-0.007349293
67	0x3d07b72a	0.033133663
68	0xbc0594f3	-0.008153188
69	0xbd6278db	-0.055291038
70	0xbc772f01	-0.01508689
71	0xbd410f4a	-0.04713372
72	0x3d2522e1	0.040316466
73	0xbd591f1c	-0.053008184
74	0xbd4f41a1	-0.050599698
75	0xbd1cb344	-0.0382569
76	0x3d65bd49	0.05608872
77	0xbd8da8bf	-0.069169514
78	0xbc753f24	-0.014968667
79	0xbd68a712	-0.056799956
80	0x3d157f06	0.036498092
81	0xbcb40f1c	-0.021979861
82	0x3caf066a	0.021365363
83	0xbd4a0419	-0.049320314
84	0xbd3582be	-0.04431414
85	0xbd681961	-0.05666483
86	0xbd7950ab	-0.060867947
87	0xbc6c6473	-0.014428246
88	0x3d5cbf80	0.053893566
89	0x3d871a3f	0.06596803
90	0x3d218a5c	0.03943859
91	0xbd52fbb8	-0.05150959
92	0xbc67d463	-0.014149758
93	0xbd87b633	-0.066265486
94	0x3d47ef32	0.0488121
95	0xbce5511c	-0.027992778
96	0xbd532b3e	-0.05155491
97	0xbd5be52d	-0.053685356
98	0xbd2ab2db	-0.041674476
99	0xbd5b9570	-0.05360931
100	0x3d03cad1	0.032175843
101	0xbd4bed95	-0.049787123
102	0x3c515914	0.012777586
103	0xbd2e9658	-0.042623848
104	0x3c23f022	0.010005983
105	0x3d90e9f3	0.07075872
106	0x3d83cb2b	0.064352356
107	0xbce247a4	-0.027622052
108	0x3c16ec04	0.009211544
109	0x3c29b0fb	0.010357137
110	0xbc60e0a1	-0.013725431
111	0x3c1ab7f3	0.009443271
112	0x3c60c37c	0.013718482
113	0xbd156311	-0.03647143
114	0x3c168ea0	0.009189278
115	0xbd578928	-0.052621037
116	0x3d2227d3	0.03958876
117	0xbd880bb7	-0.066428594
118	0x3d4c7a58	0.049921364
119	0x3cffae5b	0.031211069
120	0x3d0bd603	0.034139644
121	0xbd720a29	-0.05909172
122	0xbc77430f	-0.015091672
123	0x3c954b6b	0.018224439
124	0x3be21ffe	0.0069007864
125	0xbce2c0f5	-0.0276799
126	0x3d0e4b3c	0.034739718
127	0xbb921ef7	-0.0044592577
128	0xbb98a85d	-0.0046587423
129	0xbb8d6cac	-0.004315933
130	0xbd3d8f6f	-0.046279367
131	0x3cc52020	0.02406317
132	0xbd0d85f0	-0.03455156
133	0x3d810979	0.06300635
134	0x3d7cbd25	0.06170382
135	0xbd642d4b	-0.055707257
136	0xbc951195	-0.01819686
137	0x3d07c7a4	0.033149377
138	0x3d679ba3	0.05654491
139	0xbd11cee2	-0.03559769
140	0x3a02f5e9	0.000499575
141	0x3d90d996	0.07072751
142	0xbd6d3fd3	-0.057922196
143	0xbcfa9a2f	-0.030591099
144	0x3d7d572f	0.061850723
145	0x3cb576a4	0.022151299
146	0x3d3146a3	0.043280255
147	0x3b625cd5	0.0034540195
148	0x3d36d418	0.044635862
149	0x3ced3ab1	0.02895865
150	0xbd8710a6	-0.06594972
151	0x3c71e028	0.014762916
152	0xbd0d495d	-0.034493793
153	0xbd5cc6ef	-0.053900655
154	0xbcbb78c7	-0.02288474
155	0xbcdf0fdc	-0.027229242
156	0x3a50fa69	0.00079718843
157	0x3b88e779	0.0041779843
158	0x3ca1c846	0.019748818
159	0xbd3448f3	-0.044014882
160	0x3d37086a	0.04468576
161	0x3cbbb4c3	0.022913342
162	0x3d2169be	0.039407484
163	0xbd558724	-0.052130833
164	0xbd5d7772	-0.05406899
165	0x3d6432cb	0.055712502
166	0x3c37cb4c	0.011217903
167	0xbba5bbbe	-0.005057781
168	0x3cc44533	0.023958778
169	0xbc51deb0	-0.0128094405
170	0x3d0b85bb	0.034063082
171	0xbbf8e85d	-0.0075960592
172	0xbbe0f3e2	-0.0068650106
173	0x3d31a1bf	0.043367144
174	0xbd89f97b	-0.06737038
175	0xbb58f41e	-0.003310449
176	0xbd4f02e5	-0.05053987
177	0x3d6b4fc7	0.05744913
178	0x3d8c95ee	0.06864534
179	0xbd69be81	-0.057066444
180	0xbd391a77	-0.045191254
181	0xbd8c9067	-0.0686348
182	0x3d55a433	0.052158546
183	0x3c6458be	0.013937173
184	0x3d5c0c7c	0.053722844
185	0x3d3a7447	0.045521047
186	0xbd700e87	-0.058607604
187	0x3d6ea5af	0.058263477
188	0xb8722800	-5.773455e-05
189	0xbccbf956	-0.024899166
190	0xbcc5dea0	-0.024154007
191	0x3cd37868	0.02581425
192	0xbc8cf0c0	-0.017204642
193	0x3cb3a347	0.021928443
194	0x3d7b80a8	0.061401993
195	0xbcd5d73d	-0.02610361
196	0xbc4520ba	-0.012031728
197	0xbc21250c	-0.009835493
198	0xbd0a396b	-0.033746164
199	0xbc396f4c	-0.011318039

layers_2.6.weight f4 [5, 200]
0	0x3cdaf7ac	0.026729427
1	0xbcc0b52a	-0.023523886
2	0xbc9e7812	-0.019344363
3	0x3c72069b	0.014772083
4	0xbd249851	-0.040184323
5	0xbca0e9a4	-0.019642659
6	0xbda4d07c	-0.08047578
7	0xbd5a3fde	-0.053283565
8	0x3d4bce65	0.04975738
9	0x3cc786e4	0.024356313
10	0xbd76b789	-0.060233627
11	0xbca24c3d	-0.019811744
12	0x3d6fa106	0.058503173
13	0xbcbc4e84	-0.022986658
14	0x3b67b523	0.0035355769
15	0x3d10ddac	0.035367653
16	0xbd5260e2	-0.051361926
17	0xbd8610a5	-0.065461434
18	0xbd8af80e	-0.06785594
19	0x3d81d0a9	0.06338627
20	0xbcbfe2b2	-0.023423526
21	0xbc833cd9	-0.016020225
22	0xbc7f8d9c	-0.015597727
23	0x3cf7d298	0.030251786
24	0xbd24b5fb	-0.040212613
25	0x3bc58254	0.006027499
26	0xbd2ec37a	-0.04266689
27	0x3d02fd4c	0.031979844
28	0xbd88bc8c	-0.066765875
29	0xbceacfee	-0.028663602
30	0x3d6e1232	0.05812282
31	0xbd40c586	-0.047063373
32	0xbd4d7bff	-0.05016708
33	0x3d83e152	0.06439461
34	0x3d1b080b	0.037849467
35	0x3cc2f28f	0.023797302
36	0xbc92bcc7	-0.017912282
37	0xbca881fe	-0.020569798
38	0x3d8a2aa1	0.06746412
39	0xbd4c4352	-0.04986889
40	0x3cccfbff	0.025022505
41	0x3d886333	0.06659546
42	0x3c9cce0b	0.019141218
43	0xbd4f6a32	-0.050638385
44	0xbd883162	-0.06650044
45	0xbd837485	-0.06418709
46	0xbc623271	-0.0138059715
47	0x3cd5f532	0.026117895
48	0xbd03c809	-0.03217319
49	0x3cd756af	0.026286451
50	0xbcc72484	-0.024309404
51	0xbc3e352d	-0.011609358
52	0xbd622d97	-0.05521926
53	0x3d0b0bc1	0.033946756
54	0x3d4dbfdb	0.050231796
55	0x3d8d34e7	0.06894856
56	0x3d88ad55	0.066736855
57	0xbd672e81	-0.056440834
58	0xbda2c779	-0.07948203
59	0xbd7b84c8	-0.061405927
60	0xbcf6c78d	-0.03012445
61	0x3c15c526	0.009141242
62	0xbd32427c	-0.043520436
63	0x3cc34ec8	0.023841277
64	0xbca4e134	-0.020126916
65	0xbc311f94	-0.0108107515
66	0x3cd9373e	0.0265156
67	0xbd8d87cd	-0.069106676
68	0x3d8c2cfd	0.06844518
69	0x3d66204a	0.056183137
70	0x3d86c844	0.065811664
71	0x3d781db7	0.060575213
72	0xbd449468	-0.047993094
73	0x3c7bc498	0.015366696
74	0xbc2f75e6	-0.0107092615
75	0xbc790267	-0.015198327
76	0xbd151a0f	-0.036401805
77	0x3d497e4c	0.04919271
78	0x3ccc5721	0.02494389
79	0x3b840482	0.0040288577
80	0x3d52a882	0.051430233
81	0x3d817793	0.06321635
82	0x3c92603b	0.017868152
83	0x3ba66a0e	0.0050785607
84	0x3d7a43fd	0.061099995
85	0xbca9b557	-0.020716352
86	0xbd4e8492	-0.050419398
87	0xbd1c286e	-0.038124494
88	0xbd6852b2	-0.05671949
89	0xbd7c8aec	-0.061655924
90	0x3d1372f1	0.03599829
91	0xbd07033b	-0.032962065
92	0x3d36a28c	0.04458861
93	0x3cfdf0a4	0.030998535
94	0xbd09d144	-0.033646837
95	0xbd834e8a	-0.064114645
96	0xbc897eca	-0.01678409
97	0xbd70099f	-0.058602925
98	0x3d641286	0.055681728
99	0xbbc86249	-0.006115232
100	0xbb9225d6	-0.004460077
101	0x3d3ce331	0.046115104
102	0x3d2b6a57	0.04184946
103	0xbd122981	-0.035684112
104	0x3d906694	0.07050815
105	0xbbc84fac	-0.0061130133
106	0xbc5474ec	-0.0129673295
107	0x3c8e4e0d	0.017371202
108	0xbcf8b0c3	-0.030357724
109	0xbd0f8f9c	-0.035049066
110	0x3cfba10d	0.030716443
111	0x3c8c1902	0.017101768
112	0x3c2c732a	0.010525504
113	0xbb928140	-0.004470974
114	0xbc78c075	-0.015182604
115	0x3d3cb15f	0.04606759
116	0x3d512acb	0.0510662
117	0xbd3b1d5e	-0.045682304
118	0xbca9ca28	-0.020726278
119	0x3d5327f1	0.051551763
120	0xbd8d24dc	-0.06891796
121	0xbd22952f	-0.039693054
122	0xbce93bc5	-0.028470883
123	0xbb0176d5	-0.0019754667
124	0x3d5d2a41	0.053995375
125	0x3c47ceaa	0.012195269
126	0x3bb51551	0.0055262228
127	0x3c590075	0.013244738
128	0xbccad7de	-0.024761137
129	0xbc69932f	-0.014256283
130	0x3d527e8c	0.051390216
131	0x3d84d6eb	0.06486305
132	0xbd717336	-0.058947764
133	0x3b5d6575	0.0033782397
134	0xbb161482	-0.0022900407
135	0xbd59ea4d	-0.053201962
136	0x3ccb4da3	0.024817294
137	0xbd102351	-0.03518993
138	0x3ca44154	0.020050682
139	0xbc71926c	-0.014744382
140	0x3d503426	0.050830983
141	0xbc344d9c	-0.011004832
142	0x3cb3d3bc	0.021951549
143	0xbc2d8f09	-0.010593184
144	0x3d4be3b6	0.04977771
145	0xbd601125	-0.05470385
146	0xbca0e349	-0.019639628
147	0xbd0ef237	-0.034898963
148	0x3cef7cbb	0.02923428
149	0xbc08067a	-0.008302325
150	0xbc1b7a89	-0.009489664
151	0xbd7d60c1	-0.06185985
152	0x3d09f10a	0.03367714
153	0xbcd18862	-0.025577728
154	0xbb1d0a9a	-0.0023962618
155	0xbd0d2db3	-0.03446741
156	0xbc49ce38	-0.012317233
157	0xbd93468e	-0.071911916
158	0x3cb08151	0.021546038
159	0xbd6274ec	-0.055287287
160	0x3d3b4970	0.045724332
161	0x3d6b2543	0.057408582
162	0xbd839377	-0.06424611
163	0xbd81ddb5	-0.063411154
164	0x3d58848c	0.05286078
165	0xbd70ab7d	-0.058757294
166	0xbcb2325e	-0.021752533
167	0xbcc3d455	-0.023904959
168	0x3d1d9b5d	0.038478244
169	0xbb80e230	-0.0039332137
170	0xbd2b7280	-0.041857243
171	0xbcdbc9d7	-0.026829643
172	0xbd6631e4	-0.056199923
173	0xbd6e8c09	-0.058239017
174	0x3d380aa3	0.04493202
175	0x3c9d8f89	0.019233482
176	0xbb18e083	-0.0023327179
177	0x3d517fba	0.0511472
178	0x3ba6d9a1	0.0050918614
179	0x3d0631f7	0.032762494
180	0xbc420268	-0.011841394
181	0x3d099994	0.03359373
182	0xbd8aa913	-0.067705296
183	0xbc42996c	-0.011877399
184	0x3d3be4eb	0.04587261
185	0xbcd5ea57	-0.026112719
186	0xbcb6bda8	-0.022307232
187	0x3d216187	0.03939965
188	0xbd7cdc26	-0.061733387
189	0x3c7b912f	0.015354439
190	0x3b647c20	0.0034864023
191	0x3b4c1c02	0.0031144624
192	0xbcd0eb20	-0.025502741
193	0xbd90de4e	-0.07073651
194	0x3c75db51	0.015005902
195	0xbcac67ff	-0.021045683
196	0x3d7c0f1f	0.061537858
197	0xbd854811	-0.06507886
198	0x3d32680e	0.043556266
199	0x3ca491f4	0.020089127
200	0xbbbbf301	-0.0057357554
201	0xbd27ed1c	-0.04099761
202	0xbd68506f	-0.056717332
203	0x3d2958dc	0.04134451
204	0xbd21bbeb	-0.039485853
205	0xbd740db8	-0.059583396
206	0xbc8b46d4	-0.017001547
207	0xbd532111	-0.051545206
208	0x3b751001	0.0037393572
209	0xbc9e3706	-0.019313347
210	0xbbc05761	-0.0058697914
211	0xbc1a5a55	-0.009420951
212	0xbd188424	-0.037235394
213	0xbd805da0	-0.062678576
214	0x3d2722dd	0.040804733
215	0xbce484ee	-0.027895417
216	0xb9a8cb97	-0.00032195143
217	0x3cd69ecc	0.026198767
218	0xbc738f72	-0.014865743
219	0xbb9dd490	-0.004816599
220	0xbcece462	-0.028917495
221	0xbb1be537	-0.0023787746
222	0x3c6b76a7	0.014371551
223	0x3d8d8921	0.06910921
224	0xbd4cea3f	-0.050028082
225	0x3d805c65	0.06267623
226	0x3d4d6d7d	0.050153244
227	0xbcade1ae	-0.021225777
228	0xbc89732b	-0.01677855
229	0x3d4a6766	0.049415015
230	0xbd199e20	-0.037504315
231	0x3b170d4d	0.00230487
232	0xbd4d14b5	-0.050068576
233	0x3d88f560	0.066874266
234	0x3d806fa0	0.06271291
235	0x3d5211cf	0.051286515
236	0x3d818886	0.06324868
237	0x3d2323f7	0.03982922
238	0x3d426a6a	0.047464766
239	0xbca5419e	-0.02017289
240	0x3d7b7fe3	0.06140126
241	0x3d80bbf3	0.062858485
242	0x3cd7072d	0.026248539
243	0x3b2f2c8e	0.0026729438
244	0x3cc14a30	0.023594946
245	0xbad3a7c0	-0.0016148016
246	0xbd62fc4d	-0.055416394
247	0x3cd3d194	0.02585677
248	0x3d71d56b	0.05904142
249	0x3c897c79	0.016782986
250	0xbcf945c6	-0.030428778
251	0x3d292f0b	0.04130463
252	0x3d70dd27	0.058804657
253	0x3c59c374	0.013291229
254	0xbd30ad38	-0.043133944
255	0xbd3406dc	-0.043951854

layers_2.6.bias f4 [5]
0	0xbc8ec568	-0.017428115
1	0x3c620060	0.013794035
2	0x3c9e3800	0.019313812
3	0xbd7f4a9b	-0.06232701
4	0xbd6794a2	-0.05653823
