results/DA3C/model/actor_net_task.ckpt (torch, 346069 bytes, 8 tensors)

layers_1.0.weight f4 [200, 20]
00000000: b62f dc3d bf55 0abe 3b0c c8bd 8cae 07be
00000010: 76b7 563e 1771 19bd 5d20 863d 8049 29be
00000020: e2f0 42bd 35e7 213e c04d 3ebe 7817 edbd
00000030: 27fb 11be a44c e13d 2694 b33d 6bb7 51be
00000040: 3c28 13be 58ce 83bd f243 bf3d e146 a6bd
00000050: 4872 cebd e0f9 5ebd 9e62 983d ac76 fcbd
00000060: 4e37 00bd d5a7 a63d 4098 a4bd 41ab 11bd
00000070: 679d 2b3d 7489 2ebe 48c2 213e 6cbb b73d
00000080: 0f73 5cbe 02fb 1abe 3089 193e 8e10 023e
00000090: 7ce7 cc3d 61d3 edbd dcdb 9fbd 24a4 0b3e
000000a0: 2739 15bd 8b0c 7a3d 0b27 133d 3743 8c3d
000000b0: 0cea 023e 23f6 88bd 2b82 98bd c551 f23c
000000c0: a474 89bd 1b51 acbd e414 e73d ac1e 10be
000000d0: a208 34be 88d6 48be 479e b63d 857f 2cbe
000000e0: ab96 02bc 6375 adbd 4c12 21be 57e5 04be
000000f0: 3afb ae3d 520d 4b3e dcdf 573e 0b09 bebd
00000100: 3650 8b3d 9444 b53d 2413 ecbd 4697 793d
00000110: 00cd 323e 80fa e9bc bc64 49be 6cf4 16be
00000120: 5cfa 123c 3f7c 3a3e f6b7 5f3c 59c5 5b3e
00000130: eb12 983d bb72 09be 1efc 58be 80c7 4c3d
00000140: d159 5cbe e0ee f33c fe3d 1b3e 63c6 5c3e
00000150: 08d9 2d3d 1042 4f3e b66f 5abe 5c19 583d
00000160: b97c 0b3e 2c35 ab3c e09e c83b 8e21 2bb8
00000170: cc15 29be 0138 5c3e 9d3c c83c 1a62 1c3e
00000180: 8a39 c9bd 663b 563e 5430 e5bd 3019 f73d
00000190: b279 16be da5f 19be 4eae 483e f0dc 61be
000001a0: 0ce6 4b3e 349e 67bd eaeb 2dbe d0f6 553d
000001b0: b018 da3c 50fb 0e3d 8c81 c33d e851 193d
000001c0: d844 0a3e 34d5 f03d 82ec 81bd 9ebb 11be
000001d0: 789e 563d 957c 5cbe 8cf0 8cbd e825 883d
000001e0: 489a c0bc 635e 0fbc 8fc0 3c3d 6fcb 1c3d
000001f0: 7caa ffbd 5db4 223e 465c 91bd 5dd9 65bd
00000200: 3bed 403e 265c e0bd f24b 0bbe 4bf6 a2bd
00000210: 87fc 82bb 233e 163e 5547 573e 3749 403e
00000220: b408 8fbd 7758 5f3d 15ff cbbc 4c22 1abe
00000230: 286d b93d 7d5a 52bc 2e41 db3d 7201 82bd
00000240: 4374 123e 8d5a bb3d 2936 353e b026 1c3e
00000250: f251 5fbd 93a7 f93c d8ae 9f3d 5cad 48be
00000260: a85f 53bd 796f 1abe 5122 9d3d 44e8 19bc
00000270: 2839 d9bd 137d 113d 51d2 353e 5119 63bd
00000280: 06a5 ee3d fa62 153c d5f2 ff3d 9f7e ea3d
00000290: a8cd 7ebd a00b a93d 8ff3 93bb d376 2a3d
000002a0: 9800 913c 0976 653e 9853 d03d b657 553e
000002b0: e467 2cbd b182 63be edec b33d d154 5e3e
000002c0: 5948 1d3e a223 9b3d c8ca 48be 5c77 1a3e
000002d0: 9d1e 1b3e 663d 603c a81f 2dbc fc12 a6bd
000002e0: 03de 163c 0818 2e3e 3217 4c3e 7940 20bd
000002f0: 8a51 1d3e 33b1 a2bd a889 b03d 22f8 04be
00000300: 95ae 38be 5066 d03c 0bde c53d 6070 3abd
00000310: 33f4 443e 649b 413e cbe5 b83d 0751 cd3d
00000320: 8e59 02bd fd75 70bd 1c13 423e c798 413e
00000330: 7c73 15be 008a ddbd ee40 20be c955 7a3c
00000340: 252d 40be b243 b53d 00ef 47ba 5841 063e
00000350: 5a91 e7bd 30d4 853d ced7 5a3e 44cd f5bc
00000360: 7271 503e e067 843d 28bb 64be 5fdc 34be
00000370: ec3a 2ebc f937 d6bd 3db6 263d de6a acbc
00000380: cec5 4abe ca8b 9bbd d3a6 0cbe 077f 963d
00000390: ebc0 0e3d 1292 01be a44a c43d 1956 263d
000003a0: dc15 33be 26a8 a7bd a765 d23d 97b8 a23d
000003b0: 4f2a f73d 84c0 333d 6858 b2bd acc4 60bd
000003c0: a332 12be c399 9a3d 2fe4 263e 72e5 703d
000003d0: 014f 883d 9c34 31bb 7599 4c3d 425e 823d
000003e0: 2c99 6c3d 806c 94bd 8250 07be 7b92 91bd
000003f0: 0a7f be3d 67b0 67bd 6f58 60be 7f79 143e
0.10751288 -0.13509272 -0.09767958 -0.13250178 0.20968422 -0.037461367 0.065491416 -0.16531944
-0.047593005 0.15810855 -0.18584347 -0.11576742 -0.14255963 0.11000946 0.087684914 -0.20480125
-0.14370817 -0.06435841 0.093391314 -0.08118988 -0.10080391 -0.054437518 0.07440685 -0.12327322
-0.031302743 0.0813748 -0.08036852 -0.03556371 0.041898157 -0.17044622 0.15796769 0.08971295
-0.21528266 -0.15134814 0.14993739 0.12701628 0.1000509 -0.11612583 -0.07805607 0.13636833
-0.036431458 0.06104712 0.035925906 0.06848758 0.12784594 -0.06687572 -0.074467026 0.029580006
-0.067117006 -0.08413907 0.112832814 -0.140742 -0.17581418 -0.19613087 0.08916908 -0.1684552
-0.007970492 -0.08469655 -0.15729636 -0.12978111 0.085440114 0.198293 0.2108149 -0.092790686
0.068024084 0.08850971 -0.11527088 0.06093528 0.17461014 -0.02856183 -0.19667333 -0.14741677
0.008970823 0.18211459 0.0136547 0.21462001 0.07425483 -0.13422672 -0.21189925 0.049994946
-0.21518637 0.02977699 0.15160367 0.21560054 0.042443305 0.20240045 -0.21331677 0.05275856
0.13621797 0.020899378 0.006122455 -4.0800827e-05 -0.16512221 0.21505739 0.024442965 0.15271798
-0.09825428 0.20921096 -0.111908585 0.12065351 -0.1469486 -0.1497797 0.19597742 -0.22056937
0.19911975 -0.05654736 -0.16984525 0.052237332 0.0266231 0.03490764 0.095461935 0.037431628
0.13502824 0.11759415 -0.063439384 -0.14231727 0.05239722 -0.215319 -0.06881818 0.06647855
-0.023511067 -0.008750531 0.046082076 0.038279947 -0.12483689 0.15889116 -0.07097678 -0.056115497
0.18840496 -0.10955076 -0.1360319 -0.07957133 -0.0039973888 0.14672141 0.21023305 0.18777929
-0.06984082 0.054527726 -0.024901906 -0.15052146 0.09054023 -0.012838957 0.107057914 -0.06347932
0.14302163 0.091481306 0.17696442 0.15249133 -0.05452151 0.030475413 0.07797021 -0.19597381
-0.051604897 -0.15081586 0.07672561 -0.009393755 -0.10606605 0.03551967 0.1775601 -0.055444065
0.116525695 0.009117836 0.124974884 0.11449932 -0.062207848 0.082541704 -0.0045151184 0.041617226
0.017700478 0.22408308 0.10172194 0.2083424 -0.042091265 -0.22217824 0.087854244 0.21712042
0.1535963 0.07575156 -0.19608605 0.15084594 0.15148397 0.0136865135 -0.0105666295 -0.0810909
0.009208205 0.17001355 0.19930723 -0.039123986 0.15363136 -0.07943954 0.08620006 -0.1298528
-0.18035348 0.025439411 0.09661492 -0.045517325 0.1923378 0.18906933 0.090282045 0.1002522
-0.031823687 -0.058706272 0.18952602 0.18905936 -0.14594835 -0.10817337 -0.15649769 0.015279242
-0.18767221 0.088508025 -0.00076268613 0.13110864 -0.113070205 0.06534612 0.21371385 -0.030005105
0.20355776 0.06465125 -0.2233702 -0.1766219 -0.010634165 -0.10459895 0.04070114 -0.021047052
-0.19802019 -0.07595022 -0.13735513 0.07348447 0.03485195 -0.12653378 0.09584549 0.040609453
-0.17488807 -0.08186369 0.10273295 0.07945364 0.120686166 0.04388477 -0.087082684 -0.05487506
-0.14277129 0.07548859 0.16297983 0.058812566 0.06655694 -0.0027039414 0.049951036 0.063656345
0.057763264 -0.07247257 -0.13214305 -0.07108017 0.093015745 -0.056564715 -0.21908735 0.14499472

layers_1.0.bias f4 [200]
00000000: a0b8 b9bd 508e a93d 4c6e b43d 0948 f73d
00000010: b290 b9bd 2728 21be 45a4 133e 06d5 26be
00000020: 571f 4d3e f07f a13b dcb6 833d 9e8f 453e
00000030: 3226 3b3d 16e1 f5bd 5b03 12be f613 7fbb
00000040: d6e8 1abe 6987 25bd 0db9 1d3e 7581 243e
00000050: dd54 b93d fcb9 07be 3150 0e3e 6e5a 0fbe
00000060: 2771 b63c 614f aabc 0b91 573d 00fa 3a3e
00000070: 51b6 06bd fb15 10be ae53 b03d 9a11 1ebd
00000080: 3e8c 9a3a 65da 36be 1459 5cbe 2a89 263e
00000090: 9c9c 223e 7a9a 0a3e 99e7 84bd 8891 00bd
000000a0: fe14 033e ee5f ff3d 38be 3abe 3ef1 553e
000000b0: c95e 46be 946f 9ebd 1baf 313e c817 943d
000000c0: d4d2 283e 5078 023e b4dd 32be 1f48 11be
000000d0: 2dca 72bc 6ebb 1abd 4596 02be 4ed0 4e3e
000000e0: cada 7cbd b30e 083e 4531 5c3e e320 0ebe
000000f0: 2bf7 58be a549 e9bc ec92 403e f8dc 413e
00000100: e2ed 413e 60f8 233b efcd 2ebe f863 d83d
00000110: bbde 22be f0f8 e63c e6db 6ebd d82a 663e
00000120: 8cfd 073e d8d5 4a3e d9d8 d6bd 6fe7 9b3c
00000130: de95 bd3d 9ec7 f7bd 8fdb 35be f46f 093e
00000140: 7636 efbd 8d25 25be 00c7 febd 4b06 aebc
00000150: fe60 ac3c 4dd8 28bc 4d6c c03b c7fe 12be
00000160: 4c1b 293e 4f74 4f3e 7d3f 193d 09e7 f53d
00000170: 299e b03d 42b2 d73d 078e 123c 1f4d 453e
00000180: 3742 ecbc 7c5a 593e 49b7 d33c a78d 0cbe
00000190: 8a20 59be 536a 863d 4800 6f3d 33a2 453e
000001a0: 8875 debd 9f00 403e da42 4e3e cdb6 28be
000001b0: 40ed 54be fba7 5cbe e71f 61be 4765 c43d
000001c0: a655 aa3d 90d0 00bd ecdf d8bd 59af 0abd
000001d0: 6a27 d23d 2166 36be 6aa8 a93d 52f1 e33d
000001e0: 3bdc 983d b40e 5dbd 38d3 cabd 9de3 ffbd
000001f0: 28a7 d9bc 6596 00be 1cd3 5c3e 9830 033e
00000200: 3311 0fbe cb3b 3abe 2719 733d 568b 8d3d
00000210: 04fb 613e 2704 103e 10a2 cd3d 77dc c1bd
00000220: 62ee 5abc b82a 2d3e a053 bebd cecf 573e
00000230: 340c 2dbd 71a9 88bd e2ed 30bd cac3 f1bd
00000240: 3c9c c6bd c95e 373e a5bc 3d3e 4813 29be
00000250: 52c7 093e fdd1 823d 2f5e 473e bbc1 463e
00000260: d01b a0bd 2cb9 413e f586 2fbe e174 1cbe
00000270: 1b34 6b3e 010c 1dbd 1dae 073e 6402 e43d
00000280: 48b2 983d 716f 233e 1ff4 bc3d 8b76 fb3d
00000290: b027 013d d373 10be 9fd0 923d dbda ccbd
000002a0: 92a6 d13d 07ce 9cbd 1e4b 003d 012a 7ebd
000002b0: 1fe1 5a3e 9905 863c f1e2 c9bd d48c 25be
000002c0: 9790 bb3d d544 a23d 07a7 5a3e 4317 5a3e
000002d0: ba0d 9ebd abae 37be 9740 233e 0a9e 1cbe
000002e0: 2414 423e 3c69 c83d ce32 d03b e926 063e
000002f0: 887a 2d3d a364 223e 8681 3b3e 200c 2bbe
00000300: 1175 9e3d 4b48 a639 fab5 08bd 10e0 93bb
00000310: 97cf 47bd 8a5f bc3c 08cd 25bc 3359 683e
-0.090684175 0.08279097 0.088101 0.120742865 -0.090608016 -0.15737973 0.14418133 -0.162922
0.20031486 0.0049285814 0.06431362 0.19293067 0.045690723 -0.12005822 -0.14259093 -0.003892181
-0.15127882 -0.04041234 0.15402623 0.16065009 0.090493895 -0.13254541 0.13897778 -0.1399934
0.022270752 -0.020789804 0.052628558 0.1825943 -0.032888714 -0.14070885 0.08609711 -0.038591005
0.0011791063 -0.17856748 -0.21518356 0.16263261 0.15880054 0.1353549 -0.06489486 -0.03138879
0.12800977 0.12469469 -0.18236625 0.20892808 -0.19372095 -0.077361256 0.17351954 0.072310984
0.16486675 0.12741208 -0.17467386 -0.14187668 -0.01481871 -0.037776403 -0.12752636 0.2019665
-0.06173209 0.13286857 0.2150317 -0.13879733 -0.21188037 -0.0284775 0.18806046 0.18931949
0.18938401 0.002501987 -0.17070745 0.105659425 -0.15905277 0.028194875 -0.05831518 0.22477281
0.13280314 0.19808137 -0.10490579 0.019031255 0.092571005 -0.12098621 -0.17759536 0.13421613
-0.116803095 -0.16127606 -0.124403 -0.021243235 0.021042343 -0.010305476 0.0058722855 -0.14355002
0.16514319 0.20259212 0.037414063 0.12006957 0.08623917 0.10532047 0.008944995 0.192677
-0.028840167 0.21225923 0.025844233 -0.13725911 -0.21203819 0.065632485 0.058349878 0.19300155
-0.10862261 0.18750237 0.2014269 -0.16475983 -0.20793629 -0.21548454 -0.21984826 0.095896296
0.083171174 -0.0314489 -0.10589585 -0.03385863 0.10261424 -0.17812397 0.082840756 0.111300126
0.07463881 -0.0539691 -0.09903568 -0.12494586 -0.026568964 -0.12557371 0.21564907 0.12811506
-0.13971405 -0.18186872 0.05935016 0.06911342 0.22068411 0.14064084 0.100406766 -0.094658785
-0.013362499 0.16910827 -0.09293294 0.21075365 -0.042247966 -0.066729434 -0.043195613 -0.11804922
-0.09697768 0.17907251 0.18528993 -0.16511261 0.13454941 0.06387708 0.19469522 0.1940984
-0.07817805 0.18918294 -0.17141326 -0.15278961 0.22969095 -0.038341526 0.13250013 0.111332685
0.074558794 0.1596048 0.0922625 0.1227847 0.03153199 -0.14106683 0.071686976 -0.10002681
0.10236849 -0.07656484 0.031321637 -0.062051777 0.2137494 0.016360091 -0.09857739 -0.16167003
0.09158438 0.07923285 0.21352778 0.21297936 -0.07717462 -0.17937724 0.15942608 -0.15294662
0.18952996 0.09785697 0.0063537126 0.1310078 0.042353183 0.15858702 0.18311128 -0.16703844
0.077371724 0.0003171585 -0.03337667 -0.0045127943 -0.048781957 0.022994775 -0.010119684 0.22690277

layers_1.2.weight f4 [200, 200]
00000000: dfb2 d83c 71ac 34bc 639c 94bc 498c 043d
00000010: 4e46 ccbc 84d5 7dbd 4bb4 7e3d afbe 45bd
00000020: 8405 113d 13f3 92bc 3be6 9abc d42f 43bc
00000030: 2220 c4bc 1ac9 7a3d 72ba a7bb a760 75bd
00000040: 70f6 183d 8e2a a93c 51cd 4a3d 5e2c 93b9
00000050: a54f 52bc 2ebd 1c3d 81a3 3e3d ee40 06bd
00000060: 5042 9e3d e0b1 35bc ca50 a63c 7c99 243d
00000070: a17f 8cbd 49a4 61bd eb69 b5bb d3c0 2d3d
00000080: 24d0 34bd 5cc5 da3c a61f 123d 97f3 873d
00000090: 80cc 413d 1b2f 85bd 312a 173d 6944 7d3d
000000a0: 049b 16bd 1548 8f3d 16d2 883d 2c7f 073d
000000b0: 2a5c b4bc 8a55 35bd ee94 3abd 8d3d c0ba
000000c0: 9457 4c3d cc97 26bc 769b 6bbd c13c 203d
000000d0: 7b61 733d 572f 4d3d 7663 493d cf5c 97bc
000000e0: 82ae 283d 5f8e 12bd 5072 89bc c51b 483d
000000f0: 79f7 39bd a8e6 c3bc e028 72bb 2962 61bd
00000100: 1028 203d 18d3 643d 88ad 7b3d 98a4 2f3d
00000110: 2eb4 363c 4813 73bc b66b 293d 0aa2 58bd
00000120: 3056 8a3c 25d7 c6bc db67 1a3d 8aad b23c
00000130: dd40 2b3d eac0 4f3d a142 633d ac7f 65bc
00000140: 8bc5 a43c 121c 20bd 4899 ad3c 4e71 a73d
00000150: 068e be3c 0d5c a03c 50b8 c63a 6b4a 893d
00000160: cea1 b3bc 9ba2 883d 11ae 05bd 0cce 5d3d
00000170: 9a8a 183d 95b8 e6bc 1154 133d 054d 883d
00000180: 1443 7f3d d56a 0b3d 1a50 84bd 6b1d 43bd
00000190: d506 623d 9edd 953d 69e2 11bd 29a6 2c3c
000001a0: 2aa5 823d f447 b8bc 2e96 733d 61ae 4f3b
000001b0: fd9e 883d b925 043d 8e03 08bd a60d 4a3d
000001c0: 8135 0bbd f925 2f3d f45e e73c d07b 7e3d
000001d0: 7dd6 50bc df9d 81bd acbc 65bd d543 68bd
000001e0: 47fc 7fbc 9a73 0abd 4def 6d3d 176c 413d
000001f0: 6c05 a0bc 5b78 2b3d 63bd cf3c 4ae0 073c
00000200: c6c2 a63a 00ad 693b 746c d43c 34cd 07bd
00000210: c65c 0a3d be01 9a3d c433 493d cf87 4cbc
00000220: 0e68 47bc dc98 553d 50df 30bd db7f 653d
00000230: e054 b1bb e948 473d 7cbf 1cbd 126d 963c
00000240: a477 28bd c73d 74bd 1093 893d 7f33 893d
00000250: 2c19 09bc b57b 74bc b0ef 693c 36dc 9c3c
00000260: 8c0a 193d 801e 12ba 2219 bcbc eaaa 0bbd
00000270: ec39 94bc 9666 723d 83e0 833d cb73 0c3d
00000280: 84ef 35bc 0464 d0bc d94e 42bd 6055 8ebd
00000290: 3e6e 603d 9f56 32bd f09c 0ebd ec3a 853d
000002a0: 84ea aa3c 29cd 86bd aa66 853d bbcf 84bd
000002b0: f04b c13c 02d2 bfbb 4afa dc3c 7ede b2bc
000002c0: 7c42 213d 3681 2abd 4d72 813d 8df8 003d
000002d0: c660 7d3d d85b 30bd 50e6 9c3d 15d3 723d
000002e0: d54b 8a3d 1b71 83bd 83f3 6d3d 2393 96bb
000002f0: 221c 703d a5dc f8ba f33d 42bd 385c 1dbc
00000300: 6553 343d b683 35bd fbd1 6a3d e6b9 1c3d
00000310: 45d9 c43c 3de7 403c 3d3c d5bc 7b8b c43c
00000320: 3dc7 e9bb 0193 233d cd58 83bd e2c9 13bd
00000330: a0da 22bc e514 5abd eeb1 21bd 132b 343c
00000340: 1aca a33d 430a 183d dc0e 603c b313 143b
00000350: 1b10 723d 0004 07bd 4699 49bd 1e6e 31bd
00000360: 1e8b 59bc c4e0 f83c a5e5 4ebd 5ac1 443d
00000370: b4e8 16bd c0e3 553d afea 45bc 260b 4fbd
00000380: 0cfa 2d3c c4f1 463d 9cc6 a1bc f328 27bc
00000390: 24e8 a3bc 6062 58bc c7cb 26bd 2bee 64bc
000003a0: 2020 d53c 98e0 803d 14dd 833d 9268 9b3d
000003b0: 80af 58ba 1a8a 6c3d 12df 4e3d 1c7e cb3c
000003c0: 15ac 823d 03ed 39bd a38b b73c 366e ba3b
000003d0: 01ef be3c 8230 853d bded d33b b136 043d
000003e0: eeac b2bc 154f 53bc 877f 81bd b152 3c3d
000003f0: 97d1 083c 2499 78bb ae32 803d d679 3abd
0.02645248 -0.011027441 -0.018140977 0.03236035 -0.024935868 -0.061971202 0.06218366 -0.048277553
0.03540565 -0.017938172 -0.01890861 -0.011913259 -0.023941103 0.06122694 -0.0051186616 -0.059906628
0.037344396 0.020650174 0.04951221 -0.0002807108 -0.012836372 0.038266353 0.04654265 -0.032776766
0.07727492 -0.011089772 0.020302195 0.040185437 -0.06860281 -0.055088315 -0.005536308 0.04242022
-0.04414381 0.026705436 0.035674714 0.06638258 0.047314167 -0.06503125 0.03690547 0.06183282
-0.03676893 0.069961704 0.06680696 0.033080265 -0.022016603 -0.04427103 -0.045552187 -0.0014666781
0.04988821 -0.010168027 -0.057521306 0.03912044 0.059419136 0.050093975 0.04916712 -0.018476872
0.04118205 -0.035780307 -0.016778141 0.048854608 -0.045402024 -0.023913696 -0.0036950633 -0.055025253
0.039100707 0.055865377 0.06144479 0.04288158 0.011151357 -0.01483614 0.041362487 -0.052888907
0.0168868 -0.02427251 0.0376967 0.021811265 0.041809905 0.050721087 0.055483464 -0.01400749
0.020113727 -0.03908927 0.021191254 0.08175908 0.023261081 0.019575143 0.001516113 0.06703647
-0.02192774 0.066716395 -0.032636706 0.05415158 0.037241556 -0.028164187 0.035968844 0.06655315
0.06231983 0.03403743 -0.06460591 -0.047635477 0.055182297 0.07317661 -0.035616312 0.010537663
0.06379159 -0.022495247 0.059469394 0.0031689631 0.066709496 0.032262538 -0.033206515 0.049329422
-0.033986572 0.042760823 0.02824352 0.062129796 -0.0127464505 -0.0632894 -0.056088135 -0.056705315
-0.015624112 -0.033801652 0.058089543 0.047222223 -0.019533835 0.041862827 0.025358861 0.008293221
0.0012722842 0.0035656095 0.02593062 -0.03315468 0.033779882 0.075198635 0.049121633 -0.012483551
-0.012170805 0.05214773 -0.043181717 0.056030136 -0.005411729 0.048653517 -0.03826855 0.018362556
-0.041129723 -0.059629228 0.06717503 0.06699275 -0.008367818 -0.014922072 0.014278337 0.019147974
0.037363574 -0.0005574003 -0.022961203 -0.034098543 -0.018094026 0.059179865 0.064393066 0.034290116
-0.011104468 -0.025438316 -0.047438476 -0.06949878 0.054792635 -0.04353964 -0.034817636 0.06505379
0.020863779 -0.065821 0.06513722 -0.06484934 0.02359578 -0.0058538923 0.026974816 -0.021834608
0.039370045 -0.04162713 0.06320629 0.031487036 0.06185987 -0.04305634 0.07661116 0.059283335
0.06752745 -0.064180575 0.05809356 -0.004595177 0.05862058 -0.0018986656 -0.04742236 -0.009604506
0.044024844 -0.044315062 0.05732916 0.038263224 0.024029383 0.0117738815 -0.0260297 0.02399229
-0.0071343468 0.039935116 -0.06413422 -0.036081202 -0.00993982 -0.053242583 -0.039476328 0.010996598
0.07997532 0.03711916 0.013675418 0.002259475 0.05909739 -0.0329628 -0.04921844 -0.043317907
-0.013277797 0.030380614 -0.050511975 0.048035957 -0.036843017 0.052219152 -0.012079879 -0.05054774
0.010618698 0.04857041 -0.019748025 -0.010202634 -0.020008154 -0.013207048 -0.04072168 -0.013972799
0.026016295 0.06292838 0.06438652 0.075883046 -0.00082658976 0.05774889 0.050505705 0.024840407
0.06380478 -0.045392048 0.022405451 0.0056894077 0.023307325 0.06503393 0.0064675496 0.03227872
-0.021810975 -0.012897273 -0.06323152 0.0459773 0.008350751 -0.0037933076 0.062596664 -0.045526348

layers_1.2.bias f4 [200]
00000000: 68a3 26bd 018d c73c 4fdb 54bd 0c38 38ba
00000010: 1621 d83b 304b bf3c 06ff 723c cecb 6d3d
00000020: bffb 673d bb3b 553d 5480 833d 246c 3cbd
00000030: 050b 833c 4003 19bc 9a24 86bd 5535 1d3c
00000040: 199f 6cbd 9886 983d 5633 32bd 36fd 1c3d
00000050: 8205 54bd a5ca e13c d097 e53c 18dd 073c
00000060: 2fa0 0dbd 5142 0f3d 8a4a 693d 72bc 823c
00000070: 2193 e7bb 6815 373d 71a1 8ebd 58bb b83c
00000080: 1738 2fbd 0a15 be3c 918e 50bd 5ffb 673d
00000090: c7be 7a3c 14e2 9d3a 1d28 933d 21b9 003c
000000a0: 4773 4b3c ca71 743d 8460 473d 093f 0abd
000000b0: f298 753d 3d75 84bd 7f2c f23c 936e 563d
000000c0: fedd 4c3d 743b 00bd e892 1cbd 6f3a 3a3d
000000d0: 7978 88bd 7312 0d3d 57af fc3c 74f5 713d
000000e0: f2ed 85bc 14ce 563d f13a ab3c 4ee5 013d
000000f0: f2ad 8fbd 03e7 4dbd 8ea2 4c3c 8e79 203d
00000100: 345f a93c f766 08bc f407 08bd 301e 0bbd
00000110: c281 cabc bcd3 bd3c 5b06 803b 7cce 80bd
00000120: 80a3 983b 0ce6 5cbd 5491 963d dff8 dbbc
00000130: 2b88 43bd 908d 1c3d 2a14 9a3d 5988 26bd
00000140: e30f 4d3d 7e2e 50bd dd14 9abc de54 a0bc
00000150: 3d00 8b3d ef84 2c3d 4dd0 e4bc c039 04bd
00000160: ea08 06bd 6912 563d 56eb 76bd b1f2 883d
00000170: 68a1 bfbc 1e1a d9bc d472 a03c 7494 4f3d
00000180: 566c 9f3c 82fa 5ebd bed4 0b3d b070 773c
00000190: d54a 8d3d 06ff f9bc b43e 593d 41b6 e9bc
000001a0: 4461 583d 55da 883d 344f 4fbd 2fab 49bd
000001b0: bb1f a33d 9c1a b63c 0a67 7a3d fb09 33bd
000001c0: 2ba4 ef3b 0e3d 35bc 606a 9d3c 9a7d 6f3d
000001d0: 4fc4 f3bc 3a1f 32bd 3ffc a03c 0961 ec3b
000001e0: 7340 34bd 4793 0b3d b5e7 66bd a2e1 143d
000001f0: cf95 253d 5287 4ebd e875 e23c aeda 1a3d
00000200: 1951 8f3d a14e 843d 4dcc eb3c 180d 52bd
00000210: 75a5 c1bc 351a 853d 6195 35bd dc83 0e3d
00000220: d7e6 873d de26 0e3d 3215 9a3b a160 afbc
00000230: b206 b4bb 9189 19bd bac3 88bd debb 873d
00000240: b32a 5ebd cb38 6e3c bc27 33bd 5ab2 5fbd
00000250: 4c84 17bd f0ae 393d 447c 1d3d dc32 f23c
00000260: a5ad 8d3d 4fde 293d 8ba2 503d c146 81bd
00000270: 4cd8 5e3d 3aed a43c 2741 55bd bd72 40bc
00000280: 307c f03b 906f a7bc 674c d9b9 c3aa 2fbd
00000290: 74e7 0b3d 9811 173d 998f 36bd 6a75 22bc
000002a0: 908d 58bd a89c 353c c555 4c3d 2a0f e13b
000002b0: 9866 2bbd ac5a 6b3d 9be3 1abd 479c b53c
000002c0: ecfc 833c 7b3d 30bd 32a4 8b3b 934a 0abd
000002d0: 8759 4d3c f856 8f3d 85db ab3c ac46 4d3d
000002e0: 9cf4 2cbd 18dd 303d f4b2 cebc 2ba3 6a3c
000002f0: db90 2abd 0d1d c5bc e5d6 56bd a71e 833c
00000300: 337a 76bd 3a22 16bd c072 573c 1591 e0ba
00000310: bc49 a3bc b726 883d 4173 44bd 2862 3c3d
-0.04068318 0.024359228 -0.05196696 -0.00070273946 0.006595741 0.023351282 0.01483131 0.05805569
0.05663657 0.052058917 0.06420961 -0.04600157 0.015996465 -0.009339154 -0.0654995 0.009595235
-0.057768915 0.07447547 -0.04350599 0.03832742 -0.051763065 0.027562449 0.028026491 0.008292459
-0.03457659 0.034975354 0.05695585 0.015958998 -0.0070670997 0.04469815 -0.06964386 0.02255027
-0.0427781 0.023203392 -0.050917212 0.05663621 0.015304274 0.0012045526 0.071853854 0.007856638
0.012417621 0.05967883 0.04867603 -0.03375152 0.059960313 -0.06467674 0.029562233 0.052351546
0.050016396 -0.0313067 -0.03822604 0.045465883 -0.06663603 0.034441423 0.030845327 0.059071973
-0.016348813 0.052442625 0.020902129 0.031712823 -0.07015599 -0.050269138 0.012489928 0.039178424
0.02067528 -0.00832533 -0.03321071 -0.033964336 -0.024720076 0.023172252 0.0039070076 -0.06289384
0.0046581626 -0.053930327 0.07351938 -0.02685207 -0.04773728 0.038220942 0.07523377 -0.040657375
0.05006398 -0.05082559 -0.018808777 -0.019571718 0.06787155 0.042118963 -0.027931357 -0.032281637
-0.032723345 0.05226365 -0.060283028 0.06686915 -0.023392394 -0.026501711 0.019586004 0.050678685
0.019460838 -0.05443812 0.034138434 0.01510255 0.06899039 -0.030517112 0.053038314 -0.028529288
0.052827135 0.066822685 -0.050612643 -0.04923552 0.079650365 0.022229485 0.061133422 -0.04371069
0.0073132715 -0.01106192 0.019215763 0.058469392 -0.029756693 -0.04348681 0.01965153 0.007213716
-0.044006776 0.034076 -0.056373317 0.036347993 0.04042607 -0.05042202 0.027644113 0.037806205
0.0699789 0.0646031 0.028783942 -0.05128202 -0.023638466 0.06499139 -0.044331912 0.03479372
0.06635826 0.034705035 0.0047022337 -0.021408381 -0.005493962 -0.03748471 -0.06677957 0.0662763
-0.05423994 0.014539908 -0.043739066 -0.05461345 -0.036991403 0.04533285 0.038448587 0.029565267
0.06917886 0.041471776 0.050936263 -0.06312323 0.054405496 0.02013265 -0.052064087 -0.011746106
0.007339023 -0.02043894 -0.0004144639 -0.04288746 0.034156278 0.036882013 -0.04457054 -0.009915689
-0.05286938 0.011084713 0.049886484 0.006868263 -0.041845888 0.05745952 -0.037814718 0.022169245
0.016111813 -0.043027382 0.004261517 -0.033762526 0.012533552 0.0699901 0.020978699 0.050116226
-0.042225465 0.0431796 -0.025231816 0.014321129 -0.04164205 -0.024061704 -0.052451033 0.016005827
-0.060175132 -0.036653735 0.013149917 -0.0017133082 -0.01993262 0.06648009 -0.047961477 0.045992047

layers_1.4.weight f4 [200, 200]
00000000: a93b 73bd 536c 2bbd 8acc 763c 197c 213d
00000010: ddc3 2bbd c4b1 4f3d 5fbf 18bd 6af2 82bc
00000020: 5b55 783d 50ea 03bd e668 d63c ec52 90bd
00000030: b20b 86bd 4ab6 3d3d 3877 1cbd b77e 363b
00000040: 35c0 433d c7e7 903d dcbe 123c ac3a 523d
00000050: f81d 973c c0e6 8cbb 6431 cf3c e8b6 543d
00000060: 21f9 7fbd 183c e9bc e0f6 82bd 99d0 a63c
00000070: 24ac 3abd 0569 853d d145 ea3c 4326 49ba
00000080: e8df c6bc 754c 623d 728b 8fbc b678 88bd
00000090: a4eb 3bbd 7a84 1b3d 7850 97bc 6455 ca3c
000000a0: 9044 98bb b43f 273d 5b14 3f3c 36dd 913d
000000b0: a852 1fbc 7c05 63bd d1bd 153c c17c c0bc
000000c0: b856 eb3c 572c 1ebd 07f9 be3c 0830 0d3d
000000d0: 301f d5bb 5980 d9b9 604a 643c ed40 f23a
000000e0: 6b37 4d3d 7383 883d 8191 6a3d c042 6b3c
000000f0: 480f a53c 987b 1d3d 3f99 8abd 3a81 3c3d
00000100: 1cf0 d8bc aac3 d33c 35e7 563c 7c48 763d
00000110: 0058 57bb b217 763d 2e29 323d 684d a43c
00000120: e8a9 27bc b2bd 473c 8742 86bc 1104 4d3d
00000130: 4646 10bd 448b 56bd f843 b13c bf0d 2d3d
00000140: 2d42 f7bb aa4c 2e3d 665c 103a c803 44bd
00000150: 4675 63bd 0f4e 423d 9e04 86bd 57ca a63c
00000160: 4ca3 bf3c 53ff 3a3c cc79 ee3c 0069 33bd
00000170: a0a6 623b da85 19bc f085 4bbd 046a 05bd
00000180: c0b0 c03c c9c3 bc3c eafa 01bd 69c6 853d
00000190: a11f 833d d37f 1e3d 698d cdbc 53e0 29bc
000001a0: a4ab 77bb 2ec7 22bd 17d3 49bd 097f 993c
000001b0: 5dce 493d 001e 9cb9 bd13 b63c ad78 893d
000001c0: 4c3b ea3c e13b b4bc ac66 cfbc 56c3 20bd
000001d0: bb0e ed3c d36e a2bc 2af1 c93c 8809 3d3d
000001e0: 461d f83c 0f96 753c acdf 803d 5cf9 523d
000001f0: 19d1 393d 75a1 8f3c a72f f53c 6298 85bd
00000200: 0228 913d 00d7 73bd 91ee 21bd 88d4 7fbd
00000210: d122 ffbc c531 1fbd 0a6c 533d 4b5c 913d
00000220: 77ff 853d 4791 813c 1e0c 56bd f4ab 05bd
00000230: 672a e1bc d8bf 16bc a899 82bd 4320 7cbc
00000240: f4aa 37bd 5433 6f3d 0d74 0cbd 1a12 26bc
00000250: 2fbe 583d 39b0 6abd 0b4b f33c ba83 1ebd
00000260: c30c 45bd 372d 7b3d a776 023d 2c7c 913c
00000270: 8da5 313d 77b3 3b3a 2264 87bd fe0a 8abd
00000280: 23a0 2fbd f988 85bd 3ae0 7a3d 15be 233d
00000290: efb2 7fbd e263 09bd 7c7f 043d 746b 87bd
000002a0: 5dd0 09bd ef4b 343d c124 37bd 7519 0a3d
000002b0: c588 80bc 97db 2ebd 797f 763b 8bbe ec3c
000002c0: 8e02 55bd f28d 813d 21b1 70bd c694 82bd
000002d0: 6c68 0a3d 62e6 483d d192 6cbc 846d f7bc
000002e0: 10bc 933c e791 56bd 0956 033d df5d 863d
000002f0: e88c e4bc f831 3e3d 11a4 853d db83 663c
00000300: f649 673d 2275 533d d18b 8dbd e5b0 afbb
00000310: da21 4f3d 01d9 57bd 3097 6e3d 7d3f a0bb
00000320: 8c62 d1bc 30fd f63b c086 703c d08c b2bb
00000330: c873 863c 4c2a 77bd b0f3 80bb 0062 783c
00000340: 4003 2bbc e444 8fbd 800f 89bb 05b0 8dbd
00000350: 22f0 b5bc ee99 22bd b83e 22bc 89e9 84bd
00000360: 1a02 4e3d baae 56bd 78df 6b3c 406d 9c3a
00000370: 0632 fdbc 4e92 dbbc 82e7 36bd faea 9bbc
00000380: 1bcb 05bd 00dc bc3c d29c cdbc 701d 96bc
00000390: d087 5c3c 5c04 3dbd 40fe 3d3c 5230 8fbd
000003a0: 117a 863d 6449 593d d30c 81bd 55c5 903d
000003b0: 8043 aaba f233 433d 53bf 82bd f4aa 393d
000003c0: b04d ac3c 1e23 30bd 723f 42bd 0cbd 0cbd
000003d0: b97c 06bd bcc5 543d 802c d63b f0eb 6b3c
000003e0: 7e28 83bc 4c17 b83c 72bc 663d 409b c53a
000003f0: 71d3 2ebd 0ac9 23bd 28d7 eabc 9878 3dbd
-0.05938307 -0.041851353 0.015063414 0.03942499 -0.041934837 0.05070664 -0.03729188 -0.015984733
0.060628276 -0.03220588 0.026173066 -0.07047066 -0.065451995 0.046316423 -0.038199633 0.0027846524
0.047790725 0.07075458 0.008956637 0.051325485 0.018446907 -0.0042999685 0.025292106 0.051932245
-0.062493447 -0.028471038 -0.06394744 0.020363139 -0.045574322 0.065141715 0.028597744 -0.0007673243
-0.024276689 0.055248696 -0.017522547 -0.06663649 -0.04587902 0.037968136 -0.018470988 0.02469892
-0.004646845 0.040832236 0.011662568 0.07122271 -0.009724297 -0.055425152 0.009139494 -0.023496987
0.028727874 -0.038616505 0.023312105 0.034469634 -0.006503962 -0.00041485092 0.013933748 0.0018482484
0.05010168 0.06665697 0.05726767 0.014359176 0.020148888 0.038447946 -0.067675106 0.046021678
-0.02648168 0.025850136 0.0131166475 0.06012772 -0.0032858849 0.06008119 0.043496303 0.020056441
-0.01023338 0.012191223 -0.016389145 0.050052706 -0.035223268 -0.052378908 0.021638855 0.042249437
-0.0075457306 0.04255358 0.00055069325 -0.04785517 -0.055531763 0.047437724 -0.065438494 0.020360155
0.023393296 0.011413413 0.029110812 -0.043801308 0.003458418 -0.009370292 -0.04968828 -0.032571808
0.023521781 0.023042576 -0.03173343 0.06531984 0.06402517 0.03869612 -0.025091844 -0.0103684245
-0.0037791515 -0.039740734 -0.049273577 0.018737333 0.04926907 -0.0002977699 0.022226209 0.0671247
0.028592728 -0.022001209 -0.025317512 -0.039248787 0.028937688 -0.019828236 0.024651129 0.046151668
0.030287396 0.01498939 0.06292662 0.05150734 0.045365427 0.017533043 0.029929949 -0.06523205
0.07087709 -0.05953121 -0.039534155 -0.062458545 -0.031144531 -0.038865823 0.051616706 0.070976816
0.06542867 0.015816344 -0.05225765 -0.03263469 -0.02748604 -0.009201013 -0.06376964 -0.015388551
-0.044840768 0.05839856 -0.034290362 -0.010136152 0.05291575 -0.057296965 0.02969887 -0.038699843
-0.048107874 0.061322417 0.031851437 0.017759405 0.043370772 0.0007160226 -0.06610896 -0.06740378
-0.042877328 -0.06520266 0.061248995 0.0399762 -0.062426504 -0.03354252 0.03234814 -0.06612292
-0.033645976 0.04401773 -0.044712786 0.033715684 -0.015690217 -0.042689886 0.00376126 0.028899452
-0.05200439 0.06325902 -0.058762673 -0.063760325 0.03379099 0.049047835 -0.014439301 -0.030203588
0.018034011 -0.052385237 0.03206447 0.06560873 -0.02789922 0.046434373 0.06525434 0.014069523
0.05646702 0.05162538 -0.069114335 -0.0053616636 0.050569393 -0.052697185 0.058249652 -0.004890381
-0.025559686 0.0075375065 0.014680564 -0.005448915 0.01641263 -0.06034307 -0.0039353 0.015160084
-0.010437787 -0.06995562 -0.004182756 -0.06918339 -0.02220923 -0.03969758 -0.009902649 -0.06489856
0.050294973 -0.052412726 0.014396541 0.0011934415 -0.030907642 -0.026803162 -0.044654377 -0.019032944
-0.0326644 0.023054123 -0.025099192 -0.018324584 0.013460115 -0.046146736 0.011596262 -0.06991638
0.06566251 0.053048506 -0.06301274 0.07068888 -0.0012990087 0.04765696 -0.063841484 0.04532905
0.021033138 -0.04300224 -0.047423787 -0.034359977 -0.03283379 0.051946387 0.0065360665 0.014399514
-0.01601052 0.022472046 0.05633206 0.0015076175 -0.042682115 -0.039986648 -0.028667048 -0.046257585

layers_1.4.bias f4 [200]
00000000: d8a9 813d 460e 6ebd c815 113d 5b67 943d
00000010: 7236 86bd 6e80 28bd b6ae 71bd dbd1 213d
00000020: c2de 623d 856c 4d3d f83e c2bc c7c7 78bd
00000030: cb3e 56bd e5eb 2abd d439 70bd bb2b 86bd
00000040: 3ef8 ec3c ca41 9f3d 0319 81bd 5047 d43c
00000050: 1e0a 4d3d d358 40bc 5b3e 98bd 7d45 8d3d
00000060: e7e7 813d a729 2b3d 53fe c1bc d1f3 aa3b
00000070: 61d7 6e3c 3284 a9bc b1e7 5f3c e993 2c3d
00000080: df09 c1bc f4d9 7cbd 11e4 21bd 7aca 92bc
00000090: 8395 c3bc 330a aebb b400 88bd dc11 043a
000000a0: 924b f13b a14e 43bd 8a96 31bd 1b04 433d
000000b0: ba2e d13c 3473 00bd 6460 e03c e8e6 023c
000000c0: 1e6f cfbc 180a 84bc e898 99bd de7f 2bbd
000000d0: b22f 5b3d b18a e6bc 557b 54bd 6765 5dbd
000000e0: 4a7e d33c cc58 83bd cd86 4f3c 40ae ea3c
000000f0: f002 3bbd 6556 8a3d 83bd 5ebb 6e13 17bd
00000100: 6927 63bb 1c50 6d3d 5e8c 28bd 929a b3bc
00000110: a2e8 6f3d a6c6 1b3d 968b 4cba 8cbb 573d
00000120: 1b6f 4abd 6a16 36bd a0da fc3b a9ec 303d
00000130: 3da1 8a3d 35e7 b5bb e52e d0bc d6d8 7ebd
00000140: b09d 633d be4d 1a3c 1054 9e3c f0c4 e0bb
00000150: fe6c f4bc d7e2 873d ec8e 91bb fa39 183d
00000160: d3c6 8dbc 754d 0a3d 002f 883d 90df 2d3c
00000170: 6f4a f53c 84a7 3e3c e9f0 6e3d fd46 d2bc
00000180: c6a7 87bd 7f1a 91bd c790 303d 1a89 6d3d
00000190: 7fbf 19bc 994b 8ebd 7876 0abd 39e1 03bd
000001a0: 486a 8c3d 4fca e23c 23e4 003d 1f82 cfbc
000001b0: bb9d 463b 1218 93bd 3cb7 36bd 1375 1ebd
000001c0: 7b95 71bd cff9 1c3d 88e5 05bd d7b6 7d3d
000001d0: 33f9 66bd 08d6 70bd b3a7 2f3d a35e 3c3d
000001e0: a4fc 57bc 07ce b3bb 31d4 01bd 4535 34bd
000001f0: 05bd 193d 2141 6dbc 10f8 57bc bbc7 6c3c
00000200: 611f 5dbd f022 87bd 0bac c73c 49ec 7bbc
00000210: c138 f8bc 4c42 38bd 6bab de3b 2498 623d
00000220: 34b7 cdbb cda8 3e3d 76cd 85bd fe67 673d
00000230: 1767 06bc 3bb6 803d 101f ed3c 0665 5dbd
00000240: 1a57 7a3b ea1d 1d3d 9bd8 003d 480c 0fbd
00000250: 36cd 413d 413d 113c 13c7 933d 40fc 593c
00000260: a280 24bd 319d 81bd b060 1dbc e913 35bd
00000270: e46a b93c e4ea 063d e9e0 4d3a d2f3 5dbd
00000280: 8c3a e33b 825a 6ebd 4461 913b c1bd 883d
00000290: 18fd d0bb 0b71 1c3b 3982 44bd be54 613d
000002a0: 9c27 10bd c8e7 d23c 631f 7f3c 3d95 d0bc
000002b0: f409 8bbc 251d bd3c 00b2 38ba 6357 473c
000002c0: 5284 aebc e984 79bc 6b3a 09bc 23e3 4dbd
000002d0: 1b97 ad3c e5ff 443c f5aa 403d 1523 9cbc
000002e0: f87c 973c 2ddb 82bd 8ba8 5dbd 7019 aabc
000002f0: 94e6 69bc 2294 233d a056 8f3d ab60 67bc
00000300: b93b 8f3b 8b7c c73c e8b6 96ba 31a7 243d
00000310: 1141 a03d acd2 67bd 0a81 843d 3615 2ebd
0.06331223 -0.05811908 0.035421163 0.07246276 -0.06553353 -0.041138105 -0.059004508 0.039506774
0.05538822 0.05015232 -0.023711666 -0.060737398 -0.052305978 -0.041728873 -0.0586489 -0.0655131
0.028926965 0.0777622 -0.06303599 0.02591291 0.050058477 -0.011739927 -0.07433768 0.068980195
0.0634306 0.04178777 -0.023680842 0.0052170535 0.0145777175 -0.020692918 0.013666079 0.042133246
-0.023564277 -0.061731294 -0.03952414 -0.017918814 -0.023875004 -0.0053112744 -0.06640759 0.00050380616
0.007363745 -0.04768241 -0.043356456 0.047611337 0.025534976 -0.031359866 0.027389713 0.007989623
-0.02532154 -0.016118094 -0.07499868 -0.04186999 0.053512283 -0.028142305 -0.05187543 -0.054051783
0.025817055 -0.06413421 0.012666416 0.028647542 -0.0456571 0.0675476 -0.003398747 -0.036883764
-0.0034660941 0.057937726 -0.04114949 -0.02192429 0.058571465 0.038031243 -0.00078027823 0.052669093
-0.049422365 -0.04445497 0.007716492 0.043194447 0.06769035 -0.0055512437 -0.025412986 -0.06221851
0.055570304 0.009417949 0.019327193 -0.0068594143 -0.029837128 0.06635063 -0.0044420864 0.037164666
-0.01730672 0.033765275 0.066495895 0.0106123835 0.02994272 0.0116366185 0.05833522 -0.025668615
-0.06623797 -0.07085132 0.04310682 0.05799208 -0.009384035 -0.06948013 -0.033804387 -0.03219721
0.06856209 0.027684359 0.031467568 -0.025330601 0.0030306417 -0.071823254 -0.04460834 -0.03868587
-0.058980446 0.038324174 -0.0326896 0.061941948 -0.05639 -0.058797866 0.04288454 0.04598869
-0.013182793 -0.005487207 -0.031696502 -0.043996114 0.03753378 -0.01448086 -0.013181701 0.014451916
-0.053985003 -0.06598461 0.024374029 -0.015376159 -0.0303005 -0.0449851 0.006795337 0.055320874
-0.006277943 0.0465477 -0.06533329 0.05649566 -0.0082032895 0.06284758 0.028945476 -0.05405142
0.003819889 0.038358606 0.03145657 -0.03492382 0.047314845 0.008864702 0.07215705 0.01330477
-0.040161736 -0.0632881 -0.009605572 -0.04420844 0.022633977 0.032938853 0.00078536436 -0.054187603
0.0069344696 -0.058191784 0.004436644 0.06676818 -0.0063778274 0.002387109 -0.047975753 0.055012457
-0.035194024 0.025745288 0.015571448 -0.025461787 -0.01697252 0.023085186 -0.0007045567 0.012166831
-0.02130333 -0.015229442 -0.008375744 -0.050265443 0.021190217 0.012023901 0.047038037 -0.019059697
0.018492207 -0.06389461 -0.054115813 -0.020764083 -0.0142761655 0.039936192 0.06998944 -0.0141221685
0.004371133 0.024351379 -0.0011498602 0.04019851 0.078249104 -0.056597397 0.06469925 -0.042500697

layers_1.6.weight f4 [6, 200]
00000000: c653 153c c527 803d 0aea c2bc 0f1d 17bd
00000010: 032f 723c 293a 97bd 8382 4fbd d72f a2bd
00000020: f374 853d 32e0 003d ecd7 aebc 3f13 16bd
00000030: 0aa9 aabd 98a5 3fbd a631 2f3d f2fb 643d
00000040: fec2 e53c 9c27 5ebd ddc3 25bd 43f7 89bb
00000050: afd7 5d3d 4c41 8c3d 00e2 29bd ae2b 143d
00000060: fc7e 8f3c db1c f93c dab1 1fbd c237 aebd
00000070: b24d b3bd 3216 78bd 6e2c dc3c a553 103d
00000080: 3320 8e3c 4bff 383d ec92 84bc b3a4 f7bc
00000090: 5881 19bd f3d6 beba 11b8 d83b 6bb1 3fba
000000a0: ac0c 673d 63de bfbb 7c66 88bd 35eb e2bb
000000b0: 4fa7 9ebd 2e1e 39bd 7088 3f3d 26e1 693c
000000c0: 731b 903d 6e44 6e3d f37e 5d3d b13d 203c
000000d0: fa7f 973c 500d d13c 9446 0ebd 85b0 4ebc
000000e0: 3ee5 f6b9 3987 ad3c cbe6 efbb 1b28 e63c
000000f0: 9633 b0bb 5f3b 1ebc 3df0 62bd 3dc8 98ba
00000100: a2e1 aabd ee98 bebc 130d 22bc 10e3 65bd
00000110: d074 e4bc 01de 05bd c037 673d 2efd eebc
00000120: b641 74bd cf00 943b 9a31 9cbc c5d6 383c
00000130: 9e23 5e3d 9eaf 84bd cb00 1e3d 1a84 1a3d
00000140: 4875 5d3c 02ba 45bd e913 813c 9af6 28bd
00000150: 837c 8f3d 8de0 87bd a557 0bbc 82ee 6abd
00000160: 8bd0 5abd f7dd 27bc f8dd 67bd 1efd e8bc
00000170: 1d68 e9bc f13d a7bc afd7 6d3c 5094 a3bc
00000180: a8f0 fd3c 6479 183c 31e4 583c 0134 8abd
00000190: 364a 3ebc 8597 8f3d e0a7 d63b 1dbb 4d3d
000001a0: 0ba9 03bd b350 a6bc 458f 58bd 72a9 983c
000001b0: 98ad efbc c089 8c3d fa71 013d 1208 3a3d
000001c0: 1dca 973c 0f75 a4bd 4edf afbd 1072 88bc
000001d0: bf33 83bc 3835 96bc ba8a 66bd 083a 8abd
000001e0: 7294 47bd 50be f0bc 4f9c 0d3d 2020 37bc
000001f0: 42e3 7bbc 4732 30bd 2565 093d b441 a7bd
00000200: ae9c 00bd 5cce 143c b497 543d 6742 1b3d
00000210: ffe7 adbc 86a1 843d 2e39 94bc 7179 7dbd
00000220: ad33 90bd 1280 b3bd 8e7c babc f066 94bd
00000230: ee5b 9cbd 557b 91bd 4f1c 06bc efc3 08bd
00000240: beb4 563d 902a fdbc 875b ef3c a9e4 173d
00000250: 8a7d 3b3d ac5c 99bb 886f 95bd c733 9bbd
00000260: a3e4 82bd 1951 c9bb bee7 703d b986 a63c
00000270: 7f04 0f3a 7712 66bd 548b 513d 79f9 9b3c
00000280: 32b9 803d 03b4 863d d920 923c d9a1 b2bd
00000290: dace 9fbd 1819 45bc cf0e 8ebd 2986 a23b
000002a0: 1e6e 3f3c e698 033d a69b f8bc 5ca0 bc3a
000002b0: 7605 f8bb 4760 51bc fa6c a0bc bd75 a3bd
000002c0: c1a1 43bb 0e4a 863d 04e8 e43c 4fff b3bc
000002d0: 571a 8f3d 2514 e7bc 36e3 94bd c687 0c3c
000002e0: 7fed e73c ff08 2abd d0e1 863b 76b6 7f3d
000002f0: e634 58bd 780f 083c 85d9 26bd 8090 403d
00000300: 6f4a 5dbc b330 5e3d 0ca5 75bd 86ac fabc
00000310: 4621 f13c d04b a73b 58c8 5ebc 4eab 503d
00000320: 4f9b 88bd 7016 b1bc d47b b9bc ff92 5fbd
00000330: db16 493d adbe 5c3c b998 15bd 85cc 6dbd
00000340: 9557 823d 1a7f c8bc 1bf3 3838 4239 493d
00000350: c7db d8bb 792a 2ebc 424e 84bd 5023 273c
00000360: eca5 87bd 7f38 203d 896f 6b3d 58db 48bc
00000370: af80 973c ff48 67bc 3f7c 7e3d cd2a 723d
00000380: c079 e8ba f5a4 083d d009 41bd 1eef 553d
00000390: 5ec9 79bd 6882 8cbd d6d8 673d 3a74 f93c
000003a0: 80bc 79bd 8eb5 a0bb 63f3 ed3b 54a7 103d
000003b0: 543b 8bbd b1f1 cdbb f4d0 0cba 9b06 3cbc
000003c0: cae9 5fbc 5be4 323d 5c6c 1b3d 932d 1ebd
000003d0: 2818 27bc dd74 45bd 6cb1 853c 9480 9b3c
000003e0: 18d2 35bd c024 303b 9a1a 31bc a0c2 6f3d
000003f0: d2d1 193d 6b9c 7b3d 3073 523c bfd1 e13c
0.009114211 0.062575854 -0.02379324 -0.036892947 0.014781716 -0.0738414 -0.050661575 -0.07919281
0.06516447 0.03146381 -0.021343194 -0.03663945 -0.08333023 -0.046788782 0.042771958 0.055904336
0.028047081 -0.054236993 -0.040469993 -0.004210384 0.05416077 0.06848392 -0.041475296 0.03617447
0.017516606 0.030409267 -0.03898797 -0.08506729 -0.087550536 -0.060568042 0.026876654 0.03523602
0.017349338 0.04516534 -0.016183339 -0.030229902 -0.037476867 -0.001455991 0.0066137393 -0.0007312509
0.05640857 -0.005855368 -0.06660172 -0.0069250115 -0.07746755 -0.045194797 0.046760976 0.014274871
0.070364855 0.05817073 0.054076146 0.009780333 0.018493641 0.025519043 -0.034735277 -0.012615328
-0.00047091575 0.021182643 -0.007321214 0.028095296 -0.0053772433 -0.00965771 -0.05540489 -0.0011656355
-0.08343817 -0.023266282 -0.009890812 -0.056124747 -0.027887732 -0.032682423 0.05644965 -0.02917346
-0.05963298 0.004516698 -0.01906662 0.011281674 0.054233186 -0.06478809 0.038574975 0.037723638
0.013516732 -0.048273094 0.015756564 -0.041250803 0.070061706 -0.066346265 -0.008504783 -0.057356365
-0.05342154 -0.010245792 -0.05660817 -0.028441008 -0.028492028 -0.020415278 0.014516755 -0.019968182
0.030998543 0.0093062855 0.013237999 -0.067482 -0.011614373 0.07011322 0.006550774 0.050227273
-0.032143634 -0.020302152 -0.052871007 0.018635485 -0.02925758 0.06862211 0.031602837 0.045417853
0.018528992 -0.0803014 -0.08587514 -0.016655952 -0.016015885 -0.018335924 -0.056284644 -0.0674935
-0.048725553 -0.029387623 0.034572896 -0.011177093 -0.015374007 -0.0430167 0.033543725 -0.08166829
-0.03139942 0.009082403 0.051902488 0.037905123 -0.021228788 0.06476121 -0.018093672 -0.061883394
-0.070411064 -0.08764662 -0.02276447 -0.07246196 -0.07634722 -0.07103602 -0.00818546 -0.03338998
0.052418463 -0.030904084 0.029218448 0.0370833 0.04577402 -0.004680237 -0.072966635 -0.07578235
-0.06391265 -0.006143701 0.058814757 0.020327913 0.0005455687 -0.056169953 0.051158264 0.019039856
0.06285323 0.06577303 0.017837929 -0.08722276 -0.07803126 -0.012029909 -0.06936418 0.004959841
0.011683969 0.032128237 -0.030347656 0.0014391053 -0.0075690104 -0.012779302 -0.019583214 -0.07981441
-0.0029851052 0.065570936 0.027942665 -0.021972327 0.06987446 -0.028207848 -0.072698995 0.008577293
0.02831149 -0.041512486 0.0041162744 0.062429868 -0.052784823 0.008304469 -0.040734787 0.047012806
-0.013506516 0.054245662 -0.059971854 -0.030599844 0.029434811 0.005105473 -0.01359757 0.05094462
-0.06670248 -0.021617144 -0.022642054 -0.054583546 0.049094062 0.013473195 -0.0365226 -0.058056373
0.06364361 -0.02447467 4.4095428e-05 0.04912687 -0.0066179964 -0.010630243 -0.06460239 0.01020129
-0.06623444 0.03911638 0.057479415 -0.012259327 0.018493978 -0.014116525 0.06213021 0.05912285
-0.001773648 0.03336044 -0.0471285 0.052229993 -0.060983054 -0.068608105 0.056603275 0.030450929
-0.060970783 -0.0049044555 0.00726168 0.035315827 -0.06798425 -0.0062849154 -0.00053717126 -0.011476184
-0.0136665795 0.043674808 0.037945136 -0.03861768 -0.01019863 -0.048207153 0.016319953 0.01898221
-0.044389814 0.0026877373 -0.010809565 0.05853522 0.037553616 0.06142847 0.012844846 0.027565835

layers_1.6.bias f4 [6]
00000000: 378b f73c d84d 30bd 8cf3 da3c 4cd8 9e3d
00000010: 45da a3bb 8245 d23b
0.03021775 -0.043042988 0.02672746 0.07756099 -0.005000385 0.0064169774
